…
I0305 15:49:44.727135  2866 net.cpp:296] The NetState phase (0) differed from the phase (1) specified by a rule in layer accuracy_4
I0305 15:49:44.727236  2866 net.cpp:53] Initializing net from parameters: 
name: "bupt_wangnet"
state {
  phase: TRAIN
  level: 0
  stage: ""
}
layer {
  name: "data"
  type: "Data"
  top: "data"
  top: "label"
  include {
    phase: TRAIN
  }
  transform_param {
    mirror: true
    mean_file: "/home/wang/disk_4T/wang_data/convert_dataset/CelebA/CelebA.binaryproto"
  }
  data_param {
    source: "/home/wang/disk_4T/wang_data/convert_dataset/CelebA/lmdb_train"
    scale: 0.02
    batch_size: 256
    backend: LMDB
  }
}
layer {
  name: "slice_label"
  type: "Slice"
  bottom: "label"
  top: "label_1"
  top: "label_2"
  top: "label_3"
  top: "label_4"
  slice_param {
    slice_point: 1
    slice_point: 2
    slice_point: 3
    axis: 1
  }
}
layer {
  name: "conv1"
  type: "Convolution"
  bottom: "data"
  top: "conv1"
  param {
    lr_mult: 1
    decay_mult: 1
  }
  param {
    lr_mult: 2
    decay_mult: 0
  }
  convolution_param {
    num_output: 20
    pad: 0
    kernel_size: 4
    stride: 1
    weight_filler {
      type: "xavier"
    }
    bias_filler {
      type: "constant"
      value: 0.1
    }
  }
}
layer {
  name: "pool1"
  type: "Pooling"
  bottom: "conv1"
  top: "pool1"
  pooling_param {
    pool: MAX
    kernel_size: 2
    stride: 2
  }
}
layer {
  name: "relu1"
  type: "ReLU"
  bottom: "pool1"
  top: "pool1"
}
layer {
  name: "conv2"
  type: "Convolution"
  bottom: "pool1"
  top: "conv2"
  param {
    lr_mult: 1
    decay_mult: 1
  }
  param {
    lr_mult: 2
    decay_mult: 0
  }
  convolution_param {
    num_output: 40
    kernel_size: 3
    stride: 1
    weight_filler {
      type: "xavier"
    }
    bias_filler {
      type: "constant"
      value: 0.1
    }
  }
}
layer {
  name: "pool2"
  type: "Pooling"
  bottom: "conv2"
  top: "pool2"
  pooling_param {
    pool: MAX
    kernel_size: 2
    stride: 2
  }
}
layer {
  name: "relu2"
  type: "ReLU"
  bottom: "pool2"
  top: "pool2"
}
layer {
  name: "conv3"
  type: "Convolution"
  bottom: "pool2"
  top: "conv3"
  param {
    lr_mult: 1
    decay_mult: 1
  }
  param {
    lr_mult: 2
    decay_mult: 0
  }
  convolution_param {
    num_output: 60
    kernel_size: 5
    stride: 1
    weight_filler {
      type: "xavier"
    }
    bias_filler {
      type: "constant"
      value: 0.1
    }
  }
}
layer {
  name: "pool3"
  type: "Pooling"
  bottom: "conv3"
  top: "pool3"
  pooling_param {
    pool: MAX
    kernel_size: 2
    stride: 2
  }
}
layer {
  name: "relu3"
  type: "ReLU"
  bottom: "pool3"
  top: "pool3"
}
layer {
  name: "conv4"
  type: "Convolution"
  bottom: "pool3"
  top: "conv4"
  param {
    lr_mult: 1
    decay_mult: 1
  }
  param {
    lr_mult: 2
    decay_mult: 0
  }
  convolution_param {
    num_output: 80
    kernel_size: 2
    stride: 1
    weight_filler {
      type: "xavier"
    }
    bias_filler {
      type: "constant"
      value: 0.1
    }
  }
}
layer {
  name: "ip1"
  type: "InnerProduct"
  bottom: "conv4"
  top: "ip1"
  param {
    lr_mult: 1
    decay_mult: 250
  }
  param {
    lr_mult: 2
    decay_mult: 0
  }
  inner_product_param {
    num_output: 120
    weight_filler {
      type: "gaussian"
      std: 0.01
    }
    bias_filler {
      type: "constant"
    }
  }
}
layer {
  name: "ip2_label_1"
  type: "InnerProduct"
  bottom: "ip1"
  top: "ip2_label_1"
  param {
    lr_mult: 1
    decay_mult: 250
  }
  param {
    lr_mult: 2
    decay_mult: 0
  }
  inner_product_param {
    num_output: 2
    weight_filler {
      type: "gaussian"
      std: 0.01
    }
    bias_filler {
      type: "constant"
    }
  }
}
layer {
  name: "loss_1"
  type: "SoftmaxWithLoss"
  bottom: "ip2_label_1"
  bottom: "label_1"
  top: "loss_1"
}
layer {
  name: "ip2_label_2"
  type: "InnerProduct"
  bottom: "ip1"
  top: "ip2_label_2"
  param {
    lr_mult: 1
    decay_mult: 250
  }
  param {
    lr_mult: 2
    decay_mult: 0
  }
  inner_product_param {
    num_output: 2
    weight_filler {
      type: "gaussian"
      std: 0.01
    }
    bias_filler {
      type: "constant"
    }
  }
}
layer {
  name: "loss_2"
  type: "SoftmaxWithLoss"
  bottom: "ip2_label_2"
  bottom: "label_2"
  top: "loss_2"
}
layer {
  name: "ip2_label_3"
  type: "InnerProduct"
  bottom: "ip1"
  top: "ip2_label_3"
  param {
    lr_mult: 1
    decay_mult: 250
  }
  param {
    lr_mult: 2
    decay_mult: 0
  }
  inner_product_param {
    num_output: 2
    weight_filler {
      type: "gaussian"
      std: 0.01
    }
    bias_filler {
      type: "constant"
    }
  }
}
layer {
  name: "loss_3"
  type: "SoftmaxWithLoss"
  bottom: "ip2_label_3"
  bottom: "label_3"
  top: "loss_3"
}
layer {
  name: "ip2_label_4"
  type: "InnerProduct"
  bottom: "ip1"
  top: "ip2_label_4"
  param {
    lr_mult: 1
    decay_mult: 250
  }
  param {
    lr_mult: 2
    decay_mult: 0
  }
  inner_product_param {
    num_output: 2
    weight_filler {
      type: "gaussian"
      std: 0.01
    }
    bias_filler {
      type: "constant"
    }
  }
}
layer {
  name: "loss_4"
  type: "SoftmaxWithLoss"
  bottom: "ip2_label_4"
  bottom: "label_4"
  top: "loss_4"
}
I0305 15:49:44.727311  2866 layer_factory.hpp:77] Creating layer data
I0305 15:49:44.727392  2866 db_lmdb.cpp:35] Opened lmdb /home/wang/disk_4T/wang_data/convert_dataset/CelebA/lmdb_train
I0305 15:49:44.727412  2866 net.cpp:86] Creating Layer data
I0305 15:49:44.727418  2866 net.cpp:382] data -> data
I0305 15:49:44.727435  2866 net.cpp:382] data -> label
I0305 15:49:44.727447  2866 data_transformer.cpp:25] Loading mean file from: /home/wang/disk_4T/wang_data/convert_dataset/CelebA/CelebA.binaryproto
I0305 15:49:44.729252  2866 data_layer.cpp:45] output data size: 256,3,218,178
I0305 15:49:44.893211  2866 net.cpp:124] Setting up data
I0305 15:49:44.893234  2866 net.cpp:131] Top shape: 256 3 218 178 (29801472)
I0305 15:49:44.893239  2866 net.cpp:131] Top shape: 256 4 (1024)
I0305 15:49:44.893241  2866 net.cpp:139] Memory required for data: 119209984
I0305 15:49:44.893249  2866 layer_factory.hpp:77] Creating layer slice_label
I0305 15:49:44.893260  2866 net.cpp:86] Creating Layer slice_label
I0305 15:49:44.893263  2866 net.cpp:408] slice_label <- label
I0305 15:49:44.893272  2866 net.cpp:382] slice_label -> label_1
I0305 15:49:44.893281  2866 net.cpp:382] slice_label -> label_2
I0305 15:49:44.893286  2866 net.cpp:382] slice_label -> label_3
I0305 15:49:44.893291  2866 net.cpp:382] slice_label -> label_4
I0305 15:49:44.893338  2866 net.cpp:124] Setting up slice_label
I0305 15:49:44.893343  2866 net.cpp:131] Top shape: 256 1 (256)
I0305 15:49:44.893345  2866 net.cpp:131] Top shape: 256 1 (256)
I0305 15:49:44.893347  2866 net.cpp:131] Top shape: 256 1 (256)
I0305 15:49:44.893349  2866 net.cpp:131] Top shape: 256 1 (256)
I0305 15:49:44.893350  2866 net.cpp:139] Memory required for data: 119214080
I0305 15:49:44.893352  2866 layer_factory.hpp:77] Creating layer conv1
I0305 15:49:44.893363  2866 net.cpp:86] Creating Layer conv1
I0305 15:49:44.893365  2866 net.cpp:408] conv1 <- data
I0305 15:49:44.893381  2866 net.cpp:382] conv1 -> conv1
I0305 15:49:45.012115  2866 net.cpp:124] Setting up conv1
I0305 15:49:45.012135  2866 net.cpp:131] Top shape: 256 20 215 175 (192640000)
I0305 15:49:45.012137  2866 net.cpp:139] Memory required for data: 889774080
I0305 15:49:45.012153  2866 layer_factory.hpp:77] Creating layer pool1
I0305 15:49:45.012161  2866 net.cpp:86] Creating Layer pool1
I0305 15:49:45.012164  2866 net.cpp:408] pool1 <- conv1
I0305 15:49:45.012168  2866 net.cpp:382] pool1 -> pool1
I0305 15:49:45.012202  2866 net.cpp:124] Setting up pool1
I0305 15:49:45.012207  2866 net.cpp:131] Top shape: 256 20 108 88 (48660480)
I0305 15:49:45.012209  2866 net.cpp:139] Memory required for data: 1084416000
I0305 15:49:45.012210  2866 layer_factory.hpp:77] Creating layer relu1
I0305 15:49:45.012215  2866 net.cpp:86] Creating Layer relu1
I0305 15:49:45.012217  2866 net.cpp:408] relu1 <- pool1
I0305 15:49:45.012220  2866 net.cpp:369] relu1 -> pool1 (in-place)
I0305 15:49:45.012436  2866 net.cpp:124] Setting up relu1
I0305 15:49:45.012444  2866 net.cpp:131] Top shape: 256 20 108 88 (48660480)
I0305 15:49:45.012447  2866 net.cpp:139] Memory required for data: 1279057920
I0305 15:49:45.012450  2866 layer_factory.hpp:77] Creating layer conv2
I0305 15:49:45.012459  2866 net.cpp:86] Creating Layer conv2
I0305 15:49:45.012460  2866 net.cpp:408] conv2 <- pool1
I0305 15:49:45.012465  2866 net.cpp:382] conv2 -> conv2
I0305 15:49:45.013502  2866 net.cpp:124] Setting up conv2
I0305 15:49:45.013511  2866 net.cpp:131] Top shape: 256 40 106 86 (93347840)
I0305 15:49:45.013514  2866 net.cpp:139] Memory required for data: 1652449280
I0305 15:49:45.013520  2866 layer_factory.hpp:77] Creating layer pool2
I0305 15:49:45.013525  2866 net.cpp:86] Creating Layer pool2
I0305 15:49:45.013526  2866 net.cpp:408] pool2 <- conv2
I0305 15:49:45.013530  2866 net.cpp:382] pool2 -> pool2
I0305 15:49:45.013555  2866 net.cpp:124] Setting up pool2
I0305 15:49:45.013558  2866 net.cpp:131] Top shape: 256 40 53 43 (23336960)
I0305 15:49:45.013561  2866 net.cpp:139] Memory required for data: 1745797120
I0305 15:49:45.013561  2866 layer_factory.hpp:77] Creating layer relu2
I0305 15:49:45.013566  2866 net.cpp:86] Creating Layer relu2
I0305 15:49:45.013566  2866 net.cpp:408] relu2 <- pool2
I0305 15:49:45.013571  2866 net.cpp:369] relu2 -> pool2 (in-place)
I0305 15:49:45.013674  2866 net.cpp:124] Setting up relu2
I0305 15:49:45.013679  2866 net.cpp:131] Top shape: 256 40 53 43 (23336960)
I0305 15:49:45.013680  2866 net.cpp:139] Memory required for data: 1839144960
I0305 15:49:45.013682  2866 layer_factory.hpp:77] Creating layer conv3
I0305 15:49:45.013689  2866 net.cpp:86] Creating Layer conv3
I0305 15:49:45.013692  2866 net.cpp:408] conv3 <- pool2
I0305 15:49:45.013695  2866 net.cpp:382] conv3 -> conv3
I0305 15:49:45.014838  2866 net.cpp:124] Setting up conv3
I0305 15:49:45.014847  2866 net.cpp:131] Top shape: 256 60 49 39 (29352960)
I0305 15:49:45.014848  2866 net.cpp:139] Memory required for data: 1956556800
I0305 15:49:45.014855  2866 layer_factory.hpp:77] Creating layer pool3
I0305 15:49:45.014859  2866 net.cpp:86] Creating Layer pool3
I0305 15:49:45.014861  2866 net.cpp:408] pool3 <- conv3
I0305 15:49:45.014864  2866 net.cpp:382] pool3 -> pool3
I0305 15:49:45.014890  2866 net.cpp:124] Setting up pool3
I0305 15:49:45.014894  2866 net.cpp:131] Top shape: 256 60 25 20 (7680000)
I0305 15:49:45.014896  2866 net.cpp:139] Memory required for data: 1987276800
I0305 15:49:45.014899  2866 layer_factory.hpp:77] Creating layer relu3
I0305 15:49:45.014900  2866 net.cpp:86] Creating Layer relu3
I0305 15:49:45.014902  2866 net.cpp:408] relu3 <- pool3
I0305 15:49:45.014906  2866 net.cpp:369] relu3 -> pool3 (in-place)
I0305 15:49:45.015010  2866 net.cpp:124] Setting up relu3
I0305 15:49:45.015015  2866 net.cpp:131] Top shape: 256 60 25 20 (7680000)
I0305 15:49:45.015017  2866 net.cpp:139] Memory required for data: 2017996800
I0305 15:49:45.015019  2866 layer_factory.hpp:77] Creating layer conv4
I0305 15:49:45.015025  2866 net.cpp:86] Creating Layer conv4
I0305 15:49:45.015041  2866 net.cpp:408] conv4 <- pool3
I0305 15:49:45.015049  2866 net.cpp:382] conv4 -> conv4
I0305 15:49:45.015926  2866 net.cpp:124] Setting up conv4
I0305 15:49:45.015934  2866 net.cpp:131] Top shape: 256 80 24 19 (9338880)
I0305 15:49:45.015936  2866 net.cpp:139] Memory required for data: 2055352320
I0305 15:49:45.015940  2866 layer_factory.hpp:77] Creating layer ip1
I0305 15:49:45.015946  2866 net.cpp:86] Creating Layer ip1
I0305 15:49:45.015949  2866 net.cpp:408] ip1 <- conv4
I0305 15:49:45.015952  2866 net.cpp:382] ip1 -> ip1
I0305 15:49:45.046717  2866 net.cpp:124] Setting up ip1
I0305 15:49:45.046737  2866 net.cpp:131] Top shape: 256 120 (30720)
I0305 15:49:45.046739  2866 net.cpp:139] Memory required for data: 2055475200
I0305 15:49:45.046751  2866 layer_factory.hpp:77] Creating layer ip1_ip1_0_split
I0305 15:49:45.046757  2866 net.cpp:86] Creating Layer ip1_ip1_0_split
I0305 15:49:45.046761  2866 net.cpp:408] ip1_ip1_0_split <- ip1
I0305 15:49:45.046766  2866 net.cpp:382] ip1_ip1_0_split -> ip1_ip1_0_split_0
I0305 15:49:45.046772  2866 net.cpp:382] ip1_ip1_0_split -> ip1_ip1_0_split_1
I0305 15:49:45.046777  2866 net.cpp:382] ip1_ip1_0_split -> ip1_ip1_0_split_2
I0305 15:49:45.046782  2866 net.cpp:382] ip1_ip1_0_split -> ip1_ip1_0_split_3
I0305 15:49:45.046816  2866 net.cpp:124] Setting up ip1_ip1_0_split
I0305 15:49:45.046820  2866 net.cpp:131] Top shape: 256 120 (30720)
I0305 15:49:45.046823  2866 net.cpp:131] Top shape: 256 120 (30720)
I0305 15:49:45.046824  2866 net.cpp:131] Top shape: 256 120 (30720)
I0305 15:49:45.046826  2866 net.cpp:131] Top shape: 256 120 (30720)
I0305 15:49:45.046828  2866 net.cpp:139] Memory required for data: 2055966720
I0305 15:49:45.046829  2866 layer_factory.hpp:77] Creating layer ip2_label_1
I0305 15:49:45.046834  2866 net.cpp:86] Creating Layer ip2_label_1
I0305 15:49:45.046836  2866 net.cpp:408] ip2_label_1 <- ip1_ip1_0_split_0
I0305 15:49:45.046841  2866 net.cpp:382] ip2_label_1 -> ip2_label_1
I0305 15:49:45.046902  2866 net.cpp:124] Setting up ip2_label_1
I0305 15:49:45.046906  2866 net.cpp:131] Top shape: 256 2 (512)
I0305 15:49:45.046908  2866 net.cpp:139] Memory required for data: 2055968768
I0305 15:49:45.046911  2866 layer_factory.hpp:77] Creating layer loss_1
I0305 15:49:45.046916  2866 net.cpp:86] Creating Layer loss_1
I0305 15:49:45.046916  2866 net.cpp:408] loss_1 <- ip2_label_1
I0305 15:49:45.046919  2866 net.cpp:408] loss_1 <- label_1
I0305 15:49:45.046922  2866 net.cpp:382] loss_1 -> loss_1
I0305 15:49:45.046928  2866 layer_factory.hpp:77] Creating layer loss_1
I0305 15:49:45.065297  2866 net.cpp:124] Setting up loss_1
I0305 15:49:45.065307  2866 net.cpp:131] Top shape: (1)
I0305 15:49:45.065309  2866 net.cpp:134]     with loss weight 1
I0305 15:49:45.065320  2866 net.cpp:139] Memory required for data: 2055968772
I0305 15:49:45.065322  2866 layer_factory.hpp:77] Creating layer ip2_label_2
I0305 15:49:45.065330  2866 net.cpp:86] Creating Layer ip2_label_2
I0305 15:49:45.065333  2866 net.cpp:408] ip2_label_2 <- ip1_ip1_0_split_1
I0305 15:49:45.065337  2866 net.cpp:382] ip2_label_2 -> ip2_label_2
I0305 15:49:45.065400  2866 net.cpp:124] Setting up ip2_label_2
I0305 15:49:45.065405  2866 net.cpp:131] Top shape: 256 2 (512)
I0305 15:49:45.065407  2866 net.cpp:139] Memory required for data: 2055970820
I0305 15:49:45.065410  2866 layer_factory.hpp:77] Creating layer loss_2
I0305 15:49:45.065413  2866 net.cpp:86] Creating Layer loss_2
I0305 15:49:45.065415  2866 net.cpp:408] loss_2 <- ip2_label_2
I0305 15:49:45.065418  2866 net.cpp:408] loss_2 <- label_2
I0305 15:49:45.065423  2866 net.cpp:382] loss_2 -> loss_2
I0305 15:49:45.065428  2866 layer_factory.hpp:77] Creating layer loss_2
I0305 15:49:45.065595  2866 net.cpp:124] Setting up loss_2
I0305 15:49:45.065603  2866 net.cpp:131] Top shape: (1)
I0305 15:49:45.065604  2866 net.cpp:134]     with loss weight 1
I0305 15:49:45.065608  2866 net.cpp:139] Memory required for data: 2055970824
I0305 15:49:45.065609  2866 layer_factory.hpp:77] Creating layer ip2_label_3
I0305 15:49:45.065614  2866 net.cpp:86] Creating Layer ip2_label_3
I0305 15:49:45.065629  2866 net.cpp:408] ip2_label_3 <- ip1_ip1_0_split_2
I0305 15:49:45.065635  2866 net.cpp:382] ip2_label_3 -> ip2_label_3
I0305 15:49:45.065701  2866 net.cpp:124] Setting up ip2_label_3
I0305 15:49:45.065708  2866 net.cpp:131] Top shape: 256 2 (512)
I0305 15:49:45.065713  2866 net.cpp:139] Memory required for data: 2055972872
I0305 15:49:45.065718  2866 layer_factory.hpp:77] Creating layer loss_3
I0305 15:49:45.065726  2866 net.cpp:86] Creating Layer loss_3
I0305 15:49:45.065729  2866 net.cpp:408] loss_3 <- ip2_label_3
I0305 15:49:45.065732  2866 net.cpp:408] loss_3 <- label_3
I0305 15:49:45.065735  2866 net.cpp:382] loss_3 -> loss_3
I0305 15:49:45.065740  2866 layer_factory.hpp:77] Creating layer loss_3
I0305 15:49:45.066005  2866 net.cpp:124] Setting up loss_3
I0305 15:49:45.066015  2866 net.cpp:131] Top shape: (1)
I0305 15:49:45.066017  2866 net.cpp:134]     with loss weight 1
I0305 15:49:45.066022  2866 net.cpp:139] Memory required for data: 2055972876
I0305 15:49:45.066026  2866 layer_factory.hpp:77] Creating layer ip2_label_4
I0305 15:49:45.066032  2866 net.cpp:86] Creating Layer ip2_label_4
I0305 15:49:45.066036  2866 net.cpp:408] ip2_label_4 <- ip1_ip1_0_split_3
I0305 15:49:45.066041  2866 net.cpp:382] ip2_label_4 -> ip2_label_4
I0305 15:49:45.066108  2866 net.cpp:124] Setting up ip2_label_4
I0305 15:49:45.066113  2866 net.cpp:131] Top shape: 256 2 (512)
I0305 15:49:45.066114  2866 net.cpp:139] Memory required for data: 2055974924
I0305 15:49:45.066120  2866 layer_factory.hpp:77] Creating layer loss_4
I0305 15:49:45.066124  2866 net.cpp:86] Creating Layer loss_4
I0305 15:49:45.066126  2866 net.cpp:408] loss_4 <- ip2_label_4
I0305 15:49:45.066128  2866 net.cpp:408] loss_4 <- label_4
I0305 15:49:45.066131  2866 net.cpp:382] loss_4 -> loss_4
…
I0305 15:49:45.066612  2866 net.cpp:296] The NetState phase (1) differed from the phase (0) specified by a rule in layer data
I0305 15:49:45.066728  2866 net.cpp:53] Initializing net from parameters: 
name: "bupt_wangnet"
state {
  phase: TEST
}
layer {
  name: "data"
  type: "Data"
  top: "data"
  top: "label"
  include {
    phase: TEST
  }
  transform_param {
    mirror: false
    mean_file: "/home/wang/disk_4T/wang_data/convert_dataset/CelebA/CelebA.binaryproto"
  }
  data_param {
    source: "/home/wang/disk_4T/wang_data/convert_dataset/CelebA/lmdb_test"
    scale: 0.02
    batch_size: 50
    backend: LMDB
  }
}
layer {
  name: "slice_label"
  type: "Slice"
  bottom: "label"
  top: "label_1"
  top: "label_2"
  top: "label_3"
  top: "label_4"
  slice_param {
    slice_point: 1
    slice_point: 2
    slice_point: 3
    axis: 1
  }
}
layer {
  name: "conv1"
  type: "Convolution"
  bottom: "data"
  top: "conv1"
  param {
    lr_mult: 1
    decay_mult: 1
  }
  param {
    lr_mult: 2
    decay_mult: 0
  }
  convolution_param {
    num_output: 20
    pad: 0
    kernel_size: 4
    stride: 1
    weight_filler {
      type: "xavier"
    }
    bias_filler {
      type: "constant"
      value: 0.1
    }
  }
}
layer {
  name: "pool1"
  type: "Pooling"
  bottom: "conv1"
  top: "pool1"
  pooling_param {
    pool: MAX
    kernel_size: 2
    stride: 2
  }
}
layer {
  name: "relu1"
  type: "ReLU"
  bottom: "pool1"
  top: "pool1"
}
layer {
  name: "conv2"
  type: "Convolution"
  bottom: "pool1"
  top: "conv2"
  param {
    lr_mult: 1
    decay_mult: 1
  }
  param {
    lr_mult: 2
    decay_mult: 0
  }
  convolution_param {
    num_output: 40
    kernel_size: 3
    stride: 1
    weight_filler {
      type: "xavier"
    }
    bias_filler {
      type: "constant"
      value: 0.1
    }
  }
}
layer {
  name: "pool2"
  type: "Pooling"
  bottom: "conv2"
  top: "pool2"
  pooling_param {
    pool: MAX
    kernel_size: 2
    stride: 2
  }
}
layer {
  name: "relu2"
  type: "ReLU"
  bottom: "pool2"
  top: "pool2"
}
layer {
  name: "conv3"
  type: "Convolution"
  bottom: "pool2"
  top: "conv3"
  param {
    lr_mult: 1
    decay_mult: 1
  }
  param {
    lr_mult: 2
    decay_mult: 0
  }
  convolution_param {
    num_output: 60
    kernel_size: 5
    stride: 1
    weight_filler {
      type: "xavier"
    }
    bias_filler {
      type: "constant"
      value: 0.1
    }
  }
}
layer {
  name: "pool3"
  type: "Pooling"
  bottom: "conv3"
  top: "pool3"
  pooling_param {
    pool: MAX
    kernel_size: 2
    stride: 2
  }
}
layer {
  name: "relu3"
  type: "ReLU"
  bottom: "pool3"
  top: "pool3"
}
layer {
  name: "conv4"
  type: "Convolution"
  bottom: "pool3"
  top: "conv4"
  param {
    lr_mult: 1
    decay_mult: 1
  }
  param {
    lr_mult: 2
    decay_mult: 0
  }
  convolution_param {
    num_output: 80
    kernel_size: 2
    stride: 1
    weight_filler {
      type: "xavier"
    }
    bias_filler {
      type: "constant"
      value: 0.1
    }
  }
}
layer {
  name: "ip1"
  type: "InnerProduct"
  bottom: "conv4"
  top: "ip1"
  param {
    lr_mult: 1
    decay_mult: 250
  }
  param {
    lr_mult: 2
    decay_mult: 0
  }
  inner_product_param {
    num_output: 120
    weight_filler {
      type: "gaussian"
      std: 0.01
    }
    bias_filler {
      type: "constant"
    }
  }
}
layer {
  name: "ip2_label_1"
  type: "InnerProduct"
  bottom: "ip1"
  top: "ip2_label_1"
  param {
    lr_mult: 1
    decay_mult: 250
  }
  param {
    lr_mult: 2
    decay_mult: 0
  }
  inner_product_param {
    num_output: 2
    weight_filler {
      type: "gaussian"
      std: 0.01
    }
    bias_filler {
      type: "constant"
    }
  }
}
layer {
  name: "accuracy_1"
  type: "Accuracy"
  bottom: "ip2_label_1"
  bottom: "label_1"
  top: "accuracy_1"
  include {
    phase: TEST
  }
}
layer {
  name: "loss_1"
  type: "SoftmaxWithLoss"
  bottom: "ip2_label_1"
  bottom: "label_1"
  top: "loss_1"
}
layer {
  name: "ip2_label_2"
  type: "InnerProduct"
  bottom: "ip1"
  top: "ip2_label_2"
  param {
    lr_mult: 1
    decay_mult: 250
  }
  param {
    lr_mult: 2
    decay_mult: 0
  }
  inner_product_param {
    num_output: 2
    weight_filler {
      type: "gaussian"
      std: 0.01
    }
    bias_filler {
      type: "constant"
    }
  }
}
layer {
  name: "accuracy_2"
  type: "Accuracy"
  bottom: "ip2_label_2"
  bottom: "label_2"
  top: "accuracy_2"
  include {
    phase: TEST
  }
}
layer {
  name: "loss_2"
  type: "SoftmaxWithLoss"
  bottom: "ip2_label_2"
  bottom: "label_2"
  top: "loss_2"
}
layer {
  name: "ip2_label_3"
  type: "InnerProduct"
  bottom: "ip1"
  top: "ip2_label_3"
  param {
    lr_mult: 1
    decay_mult: 250
  }
  param {
    lr_mult: 2
    decay_mult: 0
  }
  inner_product_param {
    num_output: 2
    weight_filler {
      type: "gaussian"
      std: 0.01
    }
    bias_filler {
      type: "constant"
    }
  }
}
layer {
  name: "accuracy_3"
  type: "Accuracy"
  bottom: "ip2_label_3"
  bottom: "label_3"
  top: "accuracy_3"
  include {
    phase: TEST
  }
}
layer {
  name: "loss_3"
  type: "SoftmaxWithLoss"
  bottom: "ip2_label_3"
  bottom: "label_3"
  top: "loss_3"
}
layer {
  name: "ip2_label_4"
  type: "InnerProduct"
  bottom: "ip1"
  top: "ip2_label_4"
  param {
    lr_mult: 1
    decay_mult: 250
  }
  param {
    lr_mult: 2
    decay_mult: 0
  }
  inner_product_param {
    num_output: 2
    weight_filler {
      type: "gaussian"
      std: 0.01
    }
    bias_filler {
      type: "constant"
    }
  }
}
layer {
  name: "accuracy_4"
  type: "Accuracy"
  bottom: "ip2_label_4"
  bottom: "label_4"
  top: "accuracy_4"
  include {
    phase: TEST
  }
}
layer {
  name: "loss_4"
  type: "SoftmaxWithLoss"
  bottom: "ip2_label_4"
  bottom: "label_4"
  top: "loss_4"
}
I0305 15:49:45.066830  2866 layer_factory.hpp:77] Creating layer data
I0305 15:49:45.066874  2866 db_lmdb.cpp:35] Opened lmdb /home/wang/disk_4T/wang_data/convert_dataset/CelebA/lmdb_test
I0305 15:49:45.066887  2866 net.cpp:86] Creating Layer data
I0305 15:49:45.066895  2866 net.cpp:382] data -> data
I0305 15:49:45.066900  2866 net.cpp:382] data -> label
I0305 15:49:45.066903  2866 data_transformer.cpp:25] Loading mean file from: /home/wang/disk_4T/wang_data/convert_dataset/CelebA/CelebA.binaryproto
I0305 15:49:45.067752  2866 data_layer.cpp:45] output data size: 50,3,218,178
I0305 15:49:45.101166  2866 net.cpp:124] Setting up data
I0305 15:49:45.101188  2866 net.cpp:131] Top shape: 50 3 218 178 (5820600)
I0305 15:49:45.101191  2866 net.cpp:131] Top shape: 50 4 (200)
I0305 15:49:45.101193  2866 net.cpp:139] Memory required for data: 23283200
I0305 15:49:45.101197  2866 layer_factory.hpp:77] Creating layer slice_label
I0305 15:49:45.101209  2866 net.cpp:86] Creating Layer slice_label
I0305 15:49:45.101212  2866 net.cpp:408] slice_label <- label
I0305 15:49:45.101217  2866 net.cpp:382] slice_label -> label_1
I0305 15:49:45.101224  2866 net.cpp:382] slice_label -> label_2
I0305 15:49:45.101227  2866 net.cpp:382] slice_label -> label_3
I0305 15:49:45.101234  2866 net.cpp:382] slice_label -> label_4
I0305 15:49:45.101299  2866 net.cpp:124] Setting up slice_label
I0305 15:49:45.101303  2866 net.cpp:131] Top shape: 50 1 (50)
I0305 15:49:45.101305  2866 net.cpp:131] Top shape: 50 1 (50)
I0305 15:49:45.101307  2866 net.cpp:131] Top shape: 50 1 (50)
I0305 15:49:45.101310  2866 net.cpp:131] Top shape: 50 1 (50)
I0305 15:49:45.101310  2866 net.cpp:139] Memory required for data: 23284000
I0305 15:49:45.101312  2866 layer_factory.hpp:77] Creating layer label_1_slice_label_0_split
I0305 15:49:45.101316  2866 net.cpp:86] Creating Layer label_1_slice_label_0_split
I0305 15:49:45.101318  2866 net.cpp:408] label_1_slice_label_0_split <- label_1
I0305 15:49:45.101321  2866 net.cpp:382] label_1_slice_label_0_split -> label_1_slice_label_0_split_0
I0305 15:49:45.101326  2866 net.cpp:382] label_1_slice_label_0_split -> label_1_slice_label_0_split_1
I0305 15:49:45.101364  2866 net.cpp:124] Setting up label_1_slice_label_0_split
I0305 15:49:45.101379  2866 net.cpp:131] Top shape: 50 1 (50)
I0305 15:49:45.101382  2866 net.cpp:131] Top shape: 50 1 (50)
I0305 15:49:45.101383  2866 net.cpp:139] Memory required for data: 23284400
I0305 15:49:45.101385  2866 layer_factory.hpp:77] Creating layer label_2_slice_label_1_split
I0305 15:49:45.101388  2866 net.cpp:86] Creating Layer label_2_slice_label_1_split
I0305 15:49:45.101390  2866 net.cpp:408] label_2_slice_label_1_split <- label_2
I0305 15:49:45.101393  2866 net.cpp:382] label_2_slice_label_1_split -> label_2_slice_label_1_split_0
I0305 15:49:45.101397  2866 net.cpp:382] label_2_slice_label_1_split -> label_2_slice_label_1_split_1
I0305 15:49:45.101418  2866 net.cpp:124] Setting up label_2_slice_label_1_split
I0305 15:49:45.101423  2866 net.cpp:131] Top shape: 50 1 (50)
I0305 15:49:45.101424  2866 net.cpp:131] Top shape: 50 1 (50)
I0305 15:49:45.101425  2866 net.cpp:139] Memory required for data: 23284800
I0305 15:49:45.101428  2866 layer_factory.hpp:77] Creating layer label_3_slice_label_2_split
I0305 15:49:45.101430  2866 net.cpp:86] Creating Layer label_3_slice_label_2_split
I0305 15:49:45.101433  2866 net.cpp:408] label_3_slice_label_2_split <- label_3
I0305 15:49:45.101435  2866 net.cpp:382] label_3_slice_label_2_split -> label_3_slice_label_2_split_0
I0305 15:49:45.101438  2866 net.cpp:382] label_3_slice_label_2_split -> label_3_slice_label_2_split_1
I0305 15:49:45.101457  2866 net.cpp:124] Setting up label_3_slice_label_2_split
I0305 15:49:45.101461  2866 net.cpp:131] Top shape: 50 1 (50)
I0305 15:49:45.101464  2866 net.cpp:131] Top shape: 50 1 (50)
I0305 15:49:45.101464  2866 net.cpp:139] Memory required for data: 23285200
I0305 15:49:45.101466  2866 layer_factory.hpp:77] Creating layer label_4_slice_label_3_split
I0305 15:49:45.101469  2866 net.cpp:86] Creating Layer label_4_slice_label_3_split
I0305 15:49:45.101471  2866 net.cpp:408] label_4_slice_label_3_split <- label_4
I0305 15:49:45.101474  2866 net.cpp:382] label_4_slice_label_3_split -> label_4_slice_label_3_split_0
I0305 15:49:45.101477  2866 net.cpp:382] label_4_slice_label_3_split -> label_4_slice_label_3_split_1
I0305 15:49:45.101495  2866 net.cpp:124] Setting up label_4_slice_label_3_split
I0305 15:49:45.101497  2866 net.cpp:131] Top shape: 50 1 (50)
I0305 15:49:45.101500  2866 net.cpp:131] Top shape: 50 1 (50)
I0305 15:49:45.101502  2866 net.cpp:139] Memory required for data: 23285600
I0305 15:49:45.101505  2866 layer_factory.hpp:77] Creating layer conv1
I0305 15:49:45.101513  2866 net.cpp:86] Creating Layer conv1
I0305 15:49:45.101517  2866 net.cpp:408] conv1 <- data
I0305 15:49:45.101522  2866 net.cpp:382] conv1 -> conv1
I0305 15:49:45.102406  2866 net.cpp:124] Setting up conv1
I0305 15:49:45.102416  2866 net.cpp:131] Top shape: 50 20 215 175 (37625000)
I0305 15:49:45.102419  2866 net.cpp:139] Memory required for data: 173785600
I0305 15:49:45.102427  2866 layer_factory.hpp:77] Creating layer pool1
I0305 15:49:45.102432  2866 net.cpp:86] Creating Layer pool1
I0305 15:49:45.102434  2866 net.cpp:408] pool1 <- conv1
I0305 15:49:45.102437  2866 net.cpp:382] pool1 -> pool1
I0305 15:49:45.105970  2866 net.cpp:124] Setting up pool1
I0305 15:49:45.105980  2866 net.cpp:131] Top shape: 50 20 108 88 (9504000)
I0305 15:49:45.105983  2866 net.cpp:139] Memory required for data: 211801600
I0305 15:49:45.105984  2866 layer_factory.hpp:77] Creating layer relu1
I0305 15:49:45.105989  2866 net.cpp:86] Creating Layer relu1
I0305 15:49:45.105993  2866 net.cpp:408] relu1 <- pool1
I0305 15:49:45.105996  2866 net.cpp:369] relu1 -> pool1 (in-place)
I0305 15:49:45.106225  2866 net.cpp:124] Setting up relu1
I0305 15:49:45.106232  2866 net.cpp:131] Top shape: 50 20 108 88 (9504000)
I0305 15:49:45.106235  2866 net.cpp:139] Memory required for data: 249817600
I0305 15:49:45.106236  2866 layer_factory.hpp:77] Creating layer conv2
I0305 15:49:45.106242  2866 net.cpp:86] Creating Layer conv2
I0305 15:49:45.106245  2866 net.cpp:408] conv2 <- pool1
I0305 15:49:45.106250  2866 net.cpp:382] conv2 -> conv2
I0305 15:49:45.107002  2866 net.cpp:124] Setting up conv2
I0305 15:49:45.107012  2866 net.cpp:131] Top shape: 50 40 106 86 (18232000)
I0305 15:49:45.107013  2866 net.cpp:139] Memory required for data: 322745600
I0305 15:49:45.107018  2866 layer_factory.hpp:77] Creating layer pool2
I0305 15:49:45.107023  2866 net.cpp:86] Creating Layer pool2
I0305 15:49:45.107026  2866 net.cpp:408] pool2 <- conv2
I0305 15:49:45.107029  2866 net.cpp:382] pool2 -> pool2
I0305 15:49:45.107054  2866 net.cpp:124] Setting up pool2
I0305 15:49:45.107059  2866 net.cpp:131] Top shape: 50 40 53 43 (4558000)
I0305 15:49:45.107060  2866 net.cpp:139] Memory required for data: 340977600
I0305 15:49:45.107062  2866 layer_factory.hpp:77] Creating layer relu2
I0305 15:49:45.107065  2866 net.cpp:86] Creating Layer relu2
I0305 15:49:45.107066  2866 net.cpp:408] relu2 <- pool2
I0305 15:49:45.107069  2866 net.cpp:369] relu2 -> pool2 (in-place)
I0305 15:49:45.107168  2866 net.cpp:124] Setting up relu2
I0305 15:49:45.107173  2866 net.cpp:131] Top shape: 50 40 53 43 (4558000)
I0305 15:49:45.107175  2866 net.cpp:139] Memory required for data: 359209600
I0305 15:49:45.107177  2866 layer_factory.hpp:77] Creating layer conv3
I0305 15:49:45.107182  2866 net.cpp:86] Creating Layer conv3
I0305 15:49:45.107184  2866 net.cpp:408] conv3 <- pool2
I0305 15:49:45.107187  2866 net.cpp:382] conv3 -> conv3
I0305 15:49:45.108224  2866 net.cpp:124] Setting up conv3
I0305 15:49:45.108233  2866 net.cpp:131] Top shape: 50 60 49 39 (5733000)
I0305 15:49:45.108235  2866 net.cpp:139] Memory required for data: 382141600
I0305 15:49:45.108242  2866 layer_factory.hpp:77] Creating layer pool3
I0305 15:49:45.108245  2866 net.cpp:86] Creating Layer pool3
I0305 15:49:45.108247  2866 net.cpp:408] pool3 <- conv3
I0305 15:49:45.108250  2866 net.cpp:382] pool3 -> pool3
I0305 15:49:45.108276  2866 net.cpp:124] Setting up pool3
I0305 15:49:45.108280  2866 net.cpp:131] Top shape: 50 60 25 20 (1500000)
I0305 15:49:45.108283  2866 net.cpp:139] Memory required for data: 388141600
I0305 15:49:45.108283  2866 layer_factory.hpp:77] Creating layer relu3
I0305 15:49:45.108286  2866 net.cpp:86] Creating Layer relu3
I0305 15:49:45.108289  2866 net.cpp:408] relu3 <- pool3
I0305 15:49:45.108291  2866 net.cpp:369] relu3 -> pool3 (in-place)
I0305 15:49:45.108393  2866 net.cpp:124] Setting up relu3
I0305 15:49:45.108398  2866 net.cpp:131] Top shape: 50 60 25 20 (1500000)
I0305 15:49:45.108400  2866 net.cpp:139] Memory required for data: 394141600
I0305 15:49:45.108402  2866 layer_factory.hpp:77] Creating layer conv4
I0305 15:49:45.108407  2866 net.cpp:86] Creating Layer conv4
I0305 15:49:45.108409  2866 net.cpp:408] conv4 <- pool3
I0305 15:49:45.108414  2866 net.cpp:382] conv4 -> conv4
I0305 15:49:45.109174  2866 net.cpp:124] Setting up conv4
I0305 15:49:45.109182  2866 net.cpp:131] Top shape: 50 80 24 19 (1824000)
I0305 15:49:45.109184  2866 net.cpp:139] Memory required for data: 401437600
I0305 15:49:45.109189  2866 layer_factory.hpp:77] Creating layer ip1
I0305 15:49:45.109194  2866 net.cpp:86] Creating Layer ip1
I0305 15:49:45.109197  2866 net.cpp:408] ip1 <- conv4
I0305 15:49:45.109201  2866 net.cpp:382] ip1 -> ip1
I0305 15:49:45.140085  2866 net.cpp:124] Setting up ip1
I0305 15:49:45.140107  2866 net.cpp:131] Top shape: 50 120 (6000)
I0305 15:49:45.140110  2866 net.cpp:139] Memory required for data: 401461600
I0305 15:49:45.140120  2866 layer_factory.hpp:77] Creating layer ip1_ip1_0_split
I0305 15:49:45.140127  2866 net.cpp:86] Creating Layer ip1_ip1_0_split
I0305 15:49:45.140130  2866 net.cpp:408] ip1_ip1_0_split <- ip1
I0305 15:49:45.140136  2866 net.cpp:382] ip1_ip1_0_split -> ip1_ip1_0_split_0
I0305 15:49:45.140142  2866 net.cpp:382] ip1_ip1_0_split -> ip1_ip1_0_split_1
I0305 15:49:45.140147  2866 net.cpp:382] ip1_ip1_0_split -> ip1_ip1_0_split_2
I0305 15:49:45.140151  2866 net.cpp:382] ip1_ip1_0_split -> ip1_ip1_0_split_3
I0305 15:49:45.140190  2866 net.cpp:124] Setting up ip1_ip1_0_split
I0305 15:49:45.140194  2866 net.cpp:131] Top shape: 50 120 (6000)
I0305 15:49:45.140197  2866 net.cpp:131] Top shape: 50 120 (6000)
I0305 15:49:45.140214  2866 net.cpp:131] Top shape: 50 120 (6000)
I0305 15:49:45.140216  2866 net.cpp:131] Top shape: 50 120 (6000)
I0305 15:49:45.140218  2866 net.cpp:139] Memory required for data: 401557600
I0305 15:49:45.140219  2866 layer_factory.hpp:77] Creating layer ip2_label_1
I0305 15:49:45.140224  2866 net.cpp:86] Creating Layer ip2_label_1
I0305 15:49:45.140228  2866 net.cpp:408] ip2_label_1 <- ip1_ip1_0_split_0
I0305 15:49:45.140230  2866 net.cpp:382] ip2_label_1 -> ip2_label_1
I0305 15:49:45.140300  2866 net.cpp:124] Setting up ip2_label_1
I0305 15:49:45.140303  2866 net.cpp:131] Top shape: 50 2 (100)
I0305 15:49:45.140305  2866 net.cpp:139] Memory required for data: 401558000
I0305 15:49:45.140307  2866 layer_factory.hpp:77] Creating layer ip2_label_1_ip2_label_1_0_split
I0305 15:49:45.140311  2866 net.cpp:86] Creating Layer ip2_label_1_ip2_label_1_0_split
I0305 15:49:45.140312  2866 net.cpp:408] ip2_label_1_ip2_label_1_0_split <- ip2_label_1
I0305 15:49:45.140316  2866 net.cpp:382] ip2_label_1_ip2_label_1_0_split -> ip2_label_1_ip2_label_1_0_split_0
I0305 15:49:45.140319  2866 net.cpp:382] ip2_label_1_ip2_label_1_0_split -> ip2_label_1_ip2_label_1_0_split_1
I0305 15:49:45.140339  2866 net.cpp:124] Setting up ip2_label_1_ip2_label_1_0_split
I0305 15:49:45.140343  2866 net.cpp:131] Top shape: 50 2 (100)
I0305 15:49:45.140346  2866 net.cpp:131] Top shape: 50 2 (100)
I0305 15:49:45.140347  2866 net.cpp:139] Memory required for data: 401558800
I0305 15:49:45.140348  2866 layer_factory.hpp:77] Creating layer accuracy_1
I0305 15:49:45.140352  2866 net.cpp:86] Creating Layer accuracy_1
I0305 15:49:45.140354  2866 net.cpp:408] accuracy_1 <- ip2_label_1_ip2_label_1_0_split_0
I0305 15:49:45.140357  2866 net.cpp:408] accuracy_1 <- label_1_slice_label_0_split_0
…
