…
I0303 19:55:49.744314 16753 net.cpp:296] The NetState phase (0) differed from the phase (1) specified by a rule in layer accuracy_3
I0303 19:55:49.744318 16753 net.cpp:296] The NetState phase (0) differed from the phase (1) specified by a rule in layer accuracy_4
I0303 19:55:49.744420 16753 net.cpp:53] Initializing net from parameters: 
name: "bupt_wangnet"
state {
  phase: TRAIN
  level: 0
  stage: ""
}
layer {
  name: "data"
  type: "HDF5Data"
  top: "data"
  top: "label"
  include {
    phase: TRAIN
  }
  hdf5_data_param {
    source: "/home/wang/disk_4T/wang_data/convert_dataset/train/train.txt"
    batch_size: 200
  }
}
layer {
  name: "slice_label"
  type: "Slice"
  bottom: "label"
  top: "label_1"
  top: "label_2"
  top: "label_3"
  top: "label_4"
  slice_param {
    slice_point: 1
    slice_point: 2
    slice_point: 3
    axis: 1
  }
}
layer {
  name: "conv1"
  type: "Convolution"
  bottom: "data"
  top: "conv1"
  param {
    lr_mult: 1
    decay_mult: 1
  }
  param {
    lr_mult: 2
    decay_mult: 0
  }
  convolution_param {
    num_output: 20
    pad: 0
    kernel_size: 4
    stride: 1
    weight_filler {
      type: "xavier"
    }
    bias_filler {
      type: "constant"
      value: 0.1
    }
  }
}
layer {
  name: "pool1"
  type: "Pooling"
  bottom: "conv1"
  top: "pool1"
  pooling_param {
    pool: MAX
    kernel_size: 2
    stride: 2
  }
}
layer {
  name: "relu1"
  type: "ReLU"
  bottom: "pool1"
  top: "pool1"
}
layer {
  name: "conv2"
  type: "Convolution"
  bottom: "pool1"
  top: "conv2"
  param {
    lr_mult: 1
    decay_mult: 1
  }
  param {
    lr_mult: 2
    decay_mult: 0
  }
  convolution_param {
    num_output: 40
    kernel_size: 3
    stride: 1
    weight_filler {
      type: "xavier"
    }
    bias_filler {
      type: "constant"
      value: 0.1
    }
  }
}
layer {
  name: "pool2"
  type: "Pooling"
  bottom: "conv2"
  top: "pool2"
  pooling_param {
    pool: MAX
    kernel_size: 2
    stride: 2
  }
}
layer {
  name: "relu2"
  type: "ReLU"
  bottom: "pool2"
  top: "pool2"
}
layer {
  name: "conv3"
  type: "Convolution"
  bottom: "pool2"
  top: "conv3"
  param {
    lr_mult: 1
    decay_mult: 1
  }
  param {
    lr_mult: 2
    decay_mult: 0
  }
  convolution_param {
    num_output: 60
    kernel_size: 5
    stride: 1
    weight_filler {
      type: "xavier"
    }
    bias_filler {
      type: "constant"
      value: 0.1
    }
  }
}
layer {
  name: "pool3"
  type: "Pooling"
  bottom: "conv3"
  top: "pool3"
  pooling_param {
    pool: MAX
    kernel_size: 2
    stride: 2
  }
}
layer {
  name: "relu3"
  type: "ReLU"
  bottom: "pool3"
  top: "pool3"
}
layer {
  name: "conv4"
  type: "Convolution"
  bottom: "pool3"
  top: "conv4"
  param {
    lr_mult: 1
    decay_mult: 1
  }
  param {
    lr_mult: 2
    decay_mult: 0
  }
  convolution_param {
    num_output: 80
    kernel_size: 2
    stride: 1
    weight_filler {
      type: "xavier"
    }
    bias_filler {
      type: "constant"
      value: 0.1
    }
  }
}
layer {
  name: "ip1"
  type: "InnerProduct"
  bottom: "conv4"
  top: "ip1"
  param {
    lr_mult: 1
    decay_mult: 250
  }
  param {
    lr_mult: 2
    decay_mult: 0
  }
  inner_product_param {
    num_output: 120
    weight_filler {
      type: "gaussian"
      std: 0.01
    }
    bias_filler {
      type: "constant"
    }
  }
}
layer {
  name: "ip2_label_1"
  type: "InnerProduct"
  bottom: "ip1"
  top: "ip2_label_1"
  param {
    lr_mult: 1
    decay_mult: 250
  }
  param {
    lr_mult: 2
    decay_mult: 0
  }
  inner_product_param {
    num_output: 2
    weight_filler {
      type: "gaussian"
      std: 0.01
    }
    bias_filler {
      type: "constant"
    }
  }
}
layer {
  name: "loss_1"
  type: "SoftmaxWithLoss"
  bottom: "ip2_label_1"
  bottom: "label_1"
  top: "loss_1"
}
layer {
  name: "ip2_label_2"
  type: "InnerProduct"
  bottom: "ip1"
  top: "ip2_label_2"
  param {
    lr_mult: 1
    decay_mult: 250
  }
  param {
    lr_mult: 2
    decay_mult: 0
  }
  inner_product_param {
    num_output: 2
    weight_filler {
      type: "gaussian"
      std: 0.01
    }
    bias_filler {
      type: "constant"
    }
  }
}
layer {
  name: "loss_2"
  type: "SoftmaxWithLoss"
  bottom: "ip2_label_2"
  bottom: "label_2"
  top: "loss_2"
}
layer {
  name: "ip2_label_3"
  type: "InnerProduct"
  bottom: "ip1"
  top: "ip2_label_3"
  param {
    lr_mult: 1
    decay_mult: 250
  }
  param {
    lr_mult: 2
    decay_mult: 0
  }
  inner_product_param {
    num_output: 2
    weight_filler {
      type: "gaussian"
      std: 0.01
    }
    bias_filler {
      type: "constant"
    }
  }
}
layer {
  name: "loss_3"
  type: "SoftmaxWithLoss"
  bottom: "ip2_label_3"
  bottom: "label_3"
  top: "loss_3"
}
layer {
  name: "ip2_label_4"
  type: "InnerProduct"
  bottom: "ip1"
  top: "ip2_label_4"
  param {
    lr_mult: 1
    decay_mult: 250
  }
  param {
    lr_mult: 2
    decay_mult: 0
  }
  inner_product_param {
    num_output: 2
    weight_filler {
      type: "gaussian"
      std: 0.01
    }
    bias_filler {
      type: "constant"
    }
  }
}
layer {
  name: "loss_4"
  type: "SoftmaxWithLoss"
  bottom: "ip2_label_4"
  bottom: "label_4"
  top: "loss_4"
}
I0303 19:55:49.744521 16753 layer_factory.hpp:77] Creating layer data
I0303 19:55:49.744532 16753 net.cpp:86] Creating Layer data
I0303 19:55:49.744537 16753 net.cpp:382] data -> data
I0303 19:55:49.744555 16753 net.cpp:382] data -> label
I0303 19:55:49.744563 16753 hdf5_data_layer.cpp:79] Loading list of HDF5 filenames from: /home/wang/disk_4T/wang_data/convert_dataset/train/train.txt
I0303 19:55:49.744592 16753 hdf5_data_layer.cpp:93] Number of HDF5 files: 14
I0303 19:55:49.745193 16753 hdf5.cpp:32] Datatype class: H5T_FLOAT
I0303 19:55:51.386471 16753 hdf5.cpp:35] Datatype class: H5T_INTEGER
I0303 19:55:51.402704 16753 net.cpp:124] Setting up data
I0303 19:55:51.402727 16753 net.cpp:131] Top shape: 200 3 218 178 (23282400)
I0303 19:55:51.402730 16753 net.cpp:131] Top shape: 200 4 (800)
I0303 19:55:51.402731 16753 net.cpp:139] Memory required for data: 93132800
I0303 19:55:51.402736 16753 layer_factory.hpp:77] Creating layer slice_label
I0303 19:55:51.402746 16753 net.cpp:86] Creating Layer slice_label
I0303 19:55:51.402751 16753 net.cpp:408] slice_label <- label
I0303 19:55:51.402761 16753 net.cpp:382] slice_label -> label_1
I0303 19:55:51.402770 16753 net.cpp:382] slice_label -> label_2
I0303 19:55:51.402776 16753 net.cpp:382] slice_label -> label_3
I0303 19:55:51.402782 16753 net.cpp:382] slice_label -> label_4
I0303 19:55:51.402813 16753 net.cpp:124] Setting up slice_label
I0303 19:55:51.402817 16753 net.cpp:131] Top shape: 200 1 (200)
I0303 19:55:51.402819 16753 net.cpp:131] Top shape: 200 1 (200)
I0303 19:55:51.402822 16753 net.cpp:131] Top shape: 200 1 (200)
I0303 19:55:51.402823 16753 net.cpp:131] Top shape: 200 1 (200)
I0303 19:55:51.402824 16753 net.cpp:139] Memory required for data: 93136000
I0303 19:55:51.402827 16753 layer_factory.hpp:77] Creating layer conv1
I0303 19:55:51.402837 16753 net.cpp:86] Creating Layer conv1
I0303 19:55:51.402840 16753 net.cpp:408] conv1 <- data
I0303 19:55:51.402844 16753 net.cpp:382] conv1 -> conv1
I0303 19:55:51.514089 16753 net.cpp:124] Setting up conv1
I0303 19:55:51.514111 16753 net.cpp:131] Top shape: 200 20 215 175 (150500000)
I0303 19:55:51.514127 16753 net.cpp:139] Memory required for data: 695136000
I0303 19:55:51.514143 16753 layer_factory.hpp:77] Creating layer pool1
I0303 19:55:51.514152 16753 net.cpp:86] Creating Layer pool1
I0303 19:55:51.514154 16753 net.cpp:408] pool1 <- conv1
I0303 19:55:51.514158 16753 net.cpp:382] pool1 -> pool1
I0303 19:55:51.514189 16753 net.cpp:124] Setting up pool1
I0303 19:55:51.514194 16753 net.cpp:131] Top shape: 200 20 108 88 (38016000)
I0303 19:55:51.514195 16753 net.cpp:139] Memory required for data: 847200000
I0303 19:55:51.514196 16753 layer_factory.hpp:77] Creating layer relu1
I0303 19:55:51.514202 16753 net.cpp:86] Creating Layer relu1
I0303 19:55:51.514204 16753 net.cpp:408] relu1 <- pool1
I0303 19:55:51.514207 16753 net.cpp:369] relu1 -> pool1 (in-place)
I0303 19:55:51.514408 16753 net.cpp:124] Setting up relu1
I0303 19:55:51.514416 16753 net.cpp:131] Top shape: 200 20 108 88 (38016000)
I0303 19:55:51.514417 16753 net.cpp:139] Memory required for data: 999264000
I0303 19:55:51.514420 16753 layer_factory.hpp:77] Creating layer conv2
I0303 19:55:51.514426 16753 net.cpp:86] Creating Layer conv2
I0303 19:55:51.514428 16753 net.cpp:408] conv2 <- pool1
I0303 19:55:51.514432 16753 net.cpp:382] conv2 -> conv2
I0303 19:55:51.515445 16753 net.cpp:124] Setting up conv2
I0303 19:55:51.515455 16753 net.cpp:131] Top shape: 200 40 106 86 (72928000)
I0303 19:55:51.515456 16753 net.cpp:139] Memory required for data: 1290976000
I0303 19:55:51.515461 16753 layer_factory.hpp:77] Creating layer pool2
I0303 19:55:51.515465 16753 net.cpp:86] Creating Layer pool2
I0303 19:55:51.515466 16753 net.cpp:408] pool2 <- conv2
I0303 19:55:51.515470 16753 net.cpp:382] pool2 -> pool2
I0303 19:55:51.515494 16753 net.cpp:124] Setting up pool2
I0303 19:55:51.515498 16753 net.cpp:131] Top shape: 200 40 53 43 (18232000)
I0303 19:55:51.515499 16753 net.cpp:139] Memory required for data: 1363904000
I0303 19:55:51.515501 16753 layer_factory.hpp:77] Creating layer relu2
I0303 19:55:51.515504 16753 net.cpp:86] Creating Layer relu2
I0303 19:55:51.515506 16753 net.cpp:408] relu2 <- pool2
I0303 19:55:51.515508 16753 net.cpp:369] relu2 -> pool2 (in-place)
I0303 19:55:51.515611 16753 net.cpp:124] Setting up relu2
I0303 19:55:51.515616 16753 net.cpp:131] Top shape: 200 40 53 43 (18232000)
I0303 19:55:51.515619 16753 net.cpp:139] Memory required for data: 1436832000
I0303 19:55:51.515619 16753 layer_factory.hpp:77] Creating layer conv3
I0303 19:55:51.515625 16753 net.cpp:86] Creating Layer conv3
I0303 19:55:51.515627 16753 net.cpp:408] conv3 <- pool2
I0303 19:55:51.515631 16753 net.cpp:382] conv3 -> conv3
I0303 19:55:51.516726 16753 net.cpp:124] Setting up conv3
I0303 19:55:51.516736 16753 net.cpp:131] Top shape: 200 60 49 39 (22932000)
I0303 19:55:51.516738 16753 net.cpp:139] Memory required for data: 1528560000
I0303 19:55:51.516743 16753 layer_factory.hpp:77] Creating layer pool3
I0303 19:55:51.516747 16753 net.cpp:86] Creating Layer pool3
I0303 19:55:51.516749 16753 net.cpp:408] pool3 <- conv3
I0303 19:55:51.516753 16753 net.cpp:382] pool3 -> pool3
I0303 19:55:51.516777 16753 net.cpp:124] Setting up pool3
I0303 19:55:51.516782 16753 net.cpp:131] Top shape: 200 60 25 20 (6000000)
I0303 19:55:51.516783 16753 net.cpp:139] Memory required for data: 1552560000
I0303 19:55:51.516785 16753 layer_factory.hpp:77] Creating layer relu3
I0303 19:55:51.516788 16753 net.cpp:86] Creating Layer relu3
I0303 19:55:51.516789 16753 net.cpp:408] relu3 <- pool3
I0303 19:55:51.516791 16753 net.cpp:369] relu3 -> pool3 (in-place)
I0303 19:55:51.516896 16753 net.cpp:124] Setting up relu3
I0303 19:55:51.516901 16753 net.cpp:131] Top shape: 200 60 25 20 (6000000)
I0303 19:55:51.516902 16753 net.cpp:139] Memory required for data: 1576560000
I0303 19:55:51.516904 16753 layer_factory.hpp:77] Creating layer conv4
I0303 19:55:51.516909 16753 net.cpp:86] Creating Layer conv4
I0303 19:55:51.516911 16753 net.cpp:408] conv4 <- pool3
I0303 19:55:51.516916 16753 net.cpp:382] conv4 -> conv4
I0303 19:55:51.517714 16753 net.cpp:124] Setting up conv4
I0303 19:55:51.517729 16753 net.cpp:131] Top shape: 200 80 24 19 (7296000)
I0303 19:55:51.517731 16753 net.cpp:139] Memory required for data: 1605744000
I0303 19:55:51.517735 16753 layer_factory.hpp:77] Creating layer ip1
I0303 19:55:51.517740 16753 net.cpp:86] Creating Layer ip1
I0303 19:55:51.517742 16753 net.cpp:408] ip1 <- conv4
I0303 19:55:51.517746 16753 net.cpp:382] ip1 -> ip1
I0303 19:55:51.548010 16753 net.cpp:124] Setting up ip1
I0303 19:55:51.548032 16753 net.cpp:131] Top shape: 200 120 (24000)
I0303 19:55:51.548034 16753 net.cpp:139] Memory required for data: 1605840000
I0303 19:55:51.548044 16753 layer_factory.hpp:77] Creating layer ip1_ip1_0_split
I0303 19:55:51.548054 16753 net.cpp:86] Creating Layer ip1_ip1_0_split
I0303 19:55:51.548056 16753 net.cpp:408] ip1_ip1_0_split <- ip1
I0303 19:55:51.548063 16753 net.cpp:382] ip1_ip1_0_split -> ip1_ip1_0_split_0
I0303 19:55:51.548069 16753 net.cpp:382] ip1_ip1_0_split -> ip1_ip1_0_split_1
I0303 19:55:51.548071 16753 net.cpp:382] ip1_ip1_0_split -> ip1_ip1_0_split_2
I0303 19:55:51.548077 16753 net.cpp:382] ip1_ip1_0_split -> ip1_ip1_0_split_3
I0303 19:55:51.548120 16753 net.cpp:124] Setting up ip1_ip1_0_split
I0303 19:55:51.548123 16753 net.cpp:131] Top shape: 200 120 (24000)
I0303 19:55:51.548125 16753 net.cpp:131] Top shape: 200 120 (24000)
I0303 19:55:51.548127 16753 net.cpp:131] Top shape: 200 120 (24000)
I0303 19:55:51.548130 16753 net.cpp:131] Top shape: 200 120 (24000)
I0303 19:55:51.548130 16753 net.cpp:139] Memory required for data: 1606224000
I0303 19:55:51.548132 16753 layer_factory.hpp:77] Creating layer ip2_label_1
I0303 19:55:51.548136 16753 net.cpp:86] Creating Layer ip2_label_1
I0303 19:55:51.548138 16753 net.cpp:408] ip2_label_1 <- ip1_ip1_0_split_0
I0303 19:55:51.548143 16753 net.cpp:382] ip2_label_1 -> ip2_label_1
I0303 19:55:51.548209 16753 net.cpp:124] Setting up ip2_label_1
I0303 19:55:51.548213 16753 net.cpp:131] Top shape: 200 2 (400)
I0303 19:55:51.548215 16753 net.cpp:139] Memory required for data: 1606225600
I0303 19:55:51.548218 16753 layer_factory.hpp:77] Creating layer loss_1
I0303 19:55:51.548223 16753 net.cpp:86] Creating Layer loss_1
I0303 19:55:51.548223 16753 net.cpp:408] loss_1 <- ip2_label_1
I0303 19:55:51.548226 16753 net.cpp:408] loss_1 <- label_1
I0303 19:55:51.548229 16753 net.cpp:382] loss_1 -> loss_1
I0303 19:55:51.548238 16753 layer_factory.hpp:77] Creating layer loss_1
I0303 19:55:51.548583 16753 net.cpp:124] Setting up loss_1
I0303 19:55:51.548590 16753 net.cpp:131] Top shape: (1)
I0303 19:55:51.548593 16753 net.cpp:134]     with loss weight 1
I0303 19:55:51.548604 16753 net.cpp:139] Memory required for data: 1606225604
I0303 19:55:51.548605 16753 layer_factory.hpp:77] Creating layer ip2_label_2
I0303 19:55:51.548614 16753 net.cpp:86] Creating Layer ip2_label_2
I0303 19:55:51.548617 16753 net.cpp:408] ip2_label_2 <- ip1_ip1_0_split_1
I0303 19:55:51.548621 16753 net.cpp:382] ip2_label_2 -> ip2_label_2
I0303 19:55:51.548688 16753 net.cpp:124] Setting up ip2_label_2
I0303 19:55:51.548692 16753 net.cpp:131] Top shape: 200 2 (400)
I0303 19:55:51.548694 16753 net.cpp:139] Memory required for data: 1606227204
I0303 19:55:51.548697 16753 layer_factory.hpp:77] Creating layer loss_2
I0303 19:55:51.548702 16753 net.cpp:86] Creating Layer loss_2
I0303 19:55:51.548703 16753 net.cpp:408] loss_2 <- ip2_label_2
I0303 19:55:51.548705 16753 net.cpp:408] loss_2 <- label_2
I0303 19:55:51.548707 16753 net.cpp:382] loss_2 -> loss_2
I0303 19:55:51.548712 16753 layer_factory.hpp:77] Creating layer loss_2
I0303 19:55:51.548868 16753 net.cpp:124] Setting up loss_2
I0303 19:55:51.548873 16753 net.cpp:131] Top shape: (1)
I0303 19:55:51.548876 16753 net.cpp:134]     with loss weight 1
I0303 19:55:51.548878 16753 net.cpp:139] Memory required for data: 1606227208
I0303 19:55:51.548879 16753 layer_factory.hpp:77] Creating layer ip2_label_3
I0303 19:55:51.548885 16753 net.cpp:86] Creating Layer ip2_label_3
I0303 19:55:51.548888 16753 net.cpp:408] ip2_label_3 <- ip1_ip1_0_split_2
I0303 19:55:51.548895 16753 net.cpp:382] ip2_label_3 -> ip2_label_3
I0303 19:55:51.548969 16753 net.cpp:124] Setting up ip2_label_3
I0303 19:55:51.548972 16753 net.cpp:131] Top shape: 200 2 (400)
I0303 19:55:51.548974 16753 net.cpp:139] Memory required for data: 1606228808
I0303 19:55:51.548977 16753 layer_factory.hpp:77] Creating layer loss_3
I0303 19:55:51.548980 16753 net.cpp:86] Creating Layer loss_3
I0303 19:55:51.548981 16753 net.cpp:408] loss_3 <- ip2_label_3
I0303 19:55:51.548985 16753 net.cpp:408] loss_3 <- label_3
I0303 19:55:51.548987 16753 net.cpp:382] loss_3 -> loss_3
I0303 19:55:51.548990 16753 layer_factory.hpp:77] Creating layer loss_3
I0303 19:55:51.549240 16753 net.cpp:124] Setting up loss_3
I0303 19:55:51.549247 16753 net.cpp:131] Top shape: (1)
I0303 19:55:51.549248 16753 net.cpp:134]     with loss weight 1
I0303 19:55:51.549252 16753 net.cpp:139] Memory required for data: 1606228812
I0303 19:55:51.549253 16753 layer_factory.hpp:77] Creating layer ip2_label_4
I0303 19:55:51.549257 16753 net.cpp:86] Creating Layer ip2_label_4
I0303 19:55:51.549260 16753 net.cpp:408] ip2_label_4 <- ip1_ip1_0_split_3
I0303 19:55:51.549263 16753 net.cpp:382] ip2_label_4 -> ip2_label_4
I0303 19:55:51.549322 16753 net.cpp:124] Setting up ip2_label_4
I0303 19:55:51.549326 16753 net.cpp:131] Top shape: 200 2 (400)
I0303 19:55:51.549327 16753 net.cpp:139] Memory required for data: 1606230412
I0303 19:55:51.549332 16753 layer_factory.hpp:77] Creating layer loss_4
I0303 19:55:51.549336 16753 net.cpp:86] Creating Layer loss_4
I0303 19:55:51.549338 16753 net.cpp:408] loss_4 <- ip2_label_4
I0303 19:55:51.549340 16753 net.cpp:408] loss_4 <- label_4
I0303 19:55:51.549343 16753 net.cpp:382] loss_4 -> loss_4
…
I0303 19:55:51.549792 16753 solver.cpp:173] Creating test net (#0) specified by net file: models/bupt_wangnet/train_val.prototxt
I0303 19:55:51.549814 16753 net.cpp:296] The NetState phase (1) differed from the phase (0) specified by a rule in layer data
I0303 19:55:51.549918 16753 net.cpp:53] Initializing net from parameters: 
name: "bupt_wangnet"
state {
  phase: TEST
}
layer {
  name: "data"
  type: "HDF5Data"
  top: "data"
  top: "label"
  include {
    phase: TEST
  }
  hdf5_data_param {
    source: "/home/wang/disk_4T/wang_data/convert_dataset/train/train.txt"
    batch_size: 100
  }
}
layer {
  name: "slice_label"
  type: "Slice"
  bottom: "label"
  top: "label_1"
  top: "label_2"
  top: "label_3"
  top: "label_4"
  slice_param {
    slice_point: 1
    slice_point: 2
    slice_point: 3
    axis: 1
  }
}
layer {
  name: "conv1"
  type: "Convolution"
  bottom: "data"
  top: "conv1"
  param {
    lr_mult: 1
    decay_mult: 1
  }
  param {
    lr_mult: 2
    decay_mult: 0
  }
  convolution_param {
    num_output: 20
    pad: 0
    kernel_size: 4
    stride: 1
    weight_filler {
      type: "xavier"
    }
    bias_filler {
      type: "constant"
      value: 0.1
    }
  }
}
layer {
  name: "pool1"
  type: "Pooling"
  bottom: "conv1"
  top: "pool1"
  pooling_param {
    pool: MAX
    kernel_size: 2
    stride: 2
  }
}
layer {
  name: "relu1"
  type: "ReLU"
  bottom: "pool1"
  top: "pool1"
}
layer {
  name: "conv2"
  type: "Convolution"
  bottom: "pool1"
  top: "conv2"
  param {
    lr_mult: 1
    decay_mult: 1
  }
  param {
    lr_mult: 2
    decay_mult: 0
  }
  convolution_param {
    num_output: 40
    kernel_size: 3
    stride: 1
    weight_filler {
      type: "xavier"
    }
    bias_filler {
      type: "constant"
      value: 0.1
    }
  }
}
layer {
  name: "pool2"
  type: "Pooling"
  bottom: "conv2"
  top: "pool2"
  pooling_param {
    pool: MAX
    kernel_size: 2
    stride: 2
  }
}
layer {
  name: "relu2"
  type: "ReLU"
  bottom: "pool2"
  top: "pool2"
}
layer {
  name: "conv3"
  type: "Convolution"
  bottom: "pool2"
  top: "conv3"
  param {
    lr_mult: 1
    decay_mult: 1
  }
  param {
    lr_mult: 2
    decay_mult: 0
  }
  convolution_param {
    num_output: 60
    kernel_size: 5
    stride: 1
    weight_filler {
      type: "xavier"
    }
    bias_filler {
      type: "constant"
      value: 0.1
    }
  }
}
layer {
  name: "pool3"
  type: "Pooling"
  bottom: "conv3"
  top: "pool3"
  pooling_param {
    pool: MAX
    kernel_size: 2
    stride: 2
  }
}
layer {
  name: "relu3"
  type: "ReLU"
  bottom: "pool3"
  top: "pool3"
}
layer {
  name: "conv4"
  type: "Convolution"
  bottom: "pool3"
  top: "conv4"
  param {
    lr_mult: 1
    decay_mult: 1
  }
  param {
    lr_mult: 2
    decay_mult: 0
  }
  convolution_param {
    num_output: 80
    kernel_size: 2
    stride: 1
    weight_filler {
      type: "xavier"
    }
    bias_filler {
      type: "constant"
      value: 0.1
    }
  }
}
layer {
  name: "ip1"
  type: "InnerProduct"
  bottom: "conv4"
  top: "ip1"
  param {
    lr_mult: 1
    decay_mult: 250
  }
  param {
    lr_mult: 2
    decay_mult: 0
  }
  inner_product_param {
    num_output: 120
    weight_filler {
      type: "gaussian"
      std: 0.01
    }
    bias_filler {
      type: "constant"
    }
  }
}
layer {
  name: "ip2_label_1"
  type: "InnerProduct"
  bottom: "ip1"
  top: "ip2_label_1"
  param {
    lr_mult: 1
    decay_mult: 250
  }
  param {
    lr_mult: 2
    decay_mult: 0
  }
  inner_product_param {
    num_output: 2
    weight_filler {
      type: "gaussian"
      std: 0.01
    }
    bias_filler {
      type: "constant"
    }
  }
}
layer {
  name: "accuracy_1"
  type: "Accuracy"
  bottom: "ip2_label_1"
  bottom: "label_1"
  top: "accuracy_1"
  include {
    phase: TEST
  }
}
layer {
  name: "loss_1"
  type: "SoftmaxWithLoss"
  bottom: "ip2_label_1"
  bottom: "label_1"
  top: "loss_1"
}
layer {
  name: "ip2_label_2"
  type: "InnerProduct"
  bottom: "ip1"
  top: "ip2_label_2"
  param {
    lr_mult: 1
    decay_mult: 250
  }
  param {
    lr_mult: 2
    decay_mult: 0
  }
  inner_product_param {
    num_output: 2
    weight_filler {
      type: "gaussian"
      std: 0.01
    }
    bias_filler {
      type: "constant"
    }
  }
}
layer {
  name: "accuracy_2"
  type: "Accuracy"
  bottom: "ip2_label_2"
  bottom: "label_2"
  top: "accuracy_2"
  include {
    phase: TEST
  }
}
layer {
  name: "loss_2"
  type: "SoftmaxWithLoss"
  bottom: "ip2_label_2"
  bottom: "label_2"
  top: "loss_2"
}
layer {
  name: "ip2_label_3"
  type: "InnerProduct"
  bottom: "ip1"
  top: "ip2_label_3"
  param {
    lr_mult: 1
    decay_mult: 250
  }
  param {
    lr_mult: 2
    decay_mult: 0
  }
  inner_product_param {
    num_output: 2
    weight_filler {
      type: "gaussian"
      std: 0.01
    }
    bias_filler {
      type: "constant"
    }
  }
}
layer {
  name: "accuracy_3"
  type: "Accuracy"
  bottom: "ip2_label_3"
  bottom: "label_3"
  top: "accuracy_3"
  include {
    phase: TEST
  }
}
layer {
  name: "loss_3"
  type: "SoftmaxWithLoss"
  bottom: "ip2_label_3"
  bottom: "label_3"
  top: "loss_3"
}
layer {
  name: "ip2_label_4"
  type: "InnerProduct"
  bottom: "ip1"
  top: "ip2_label_4"
  param {
    lr_mult: 1
    decay_mult: 250
  }
  param {
    lr_mult: 2
    decay_mult: 0
  }
  inner_product_param {
    num_output: 2
    weight_filler {
      type: "gaussian"
      std: 0.01
    }
    bias_filler {
      type: "constant"
    }
  }
}
layer {
  name: "accuracy_4"
  type: "Accuracy"
  bottom: "ip2_label_4"
  bottom: "label_4"
  top: "accuracy_4"
  include {
    phase: TEST
  }
}
layer {
  name: "loss_4"
  type: "SoftmaxWithLoss"
  bottom: "ip2_label_4"
  bottom: "label_4"
  top: "loss_4"
}
I0303 19:55:51.550058 16753 layer_factory.hpp:77] Creating layer data
I0303 19:55:51.550066 16753 net.cpp:86] Creating Layer data
I0303 19:55:51.550071 16753 net.cpp:382] data -> data
I0303 19:55:51.550076 16753 net.cpp:382] data -> label
I0303 19:55:51.550079 16753 hdf5_data_layer.cpp:79] Loading list of HDF5 filenames from: /home/wang/disk_4T/wang_data/convert_dataset/train/train.txt
I0303 19:55:51.550101 16753 hdf5_data_layer.cpp:93] Number of HDF5 files: 14
I0303 19:56:16.602710 16753 net.cpp:124] Setting up data
I0303 19:56:16.602740 16753 net.cpp:131] Top shape: 100 3 218 178 (11641200)
I0303 19:56:16.602742 16753 net.cpp:131] Top shape: 100 4 (400)
I0303 19:56:16.602743 16753 net.cpp:139] Memory required for data: 46566400
I0303 19:56:16.602748 16753 layer_factory.hpp:77] Creating layer slice_label
I0303 19:56:16.602761 16753 net.cpp:86] Creating Layer slice_label
I0303 19:56:16.602763 16753 net.cpp:408] slice_label <- label
I0303 19:56:16.602767 16753 net.cpp:382] slice_label -> label_1
I0303 19:56:16.602776 16753 net.cpp:382] slice_label -> label_2
I0303 19:56:16.602782 16753 net.cpp:382] slice_label -> label_3
I0303 19:56:16.602784 16753 net.cpp:382] slice_label -> label_4
I0303 19:56:16.602821 16753 net.cpp:124] Setting up slice_label
I0303 19:56:16.602825 16753 net.cpp:131] Top shape: 100 1 (100)
I0303 19:56:16.602828 16753 net.cpp:131] Top shape: 100 1 (100)
I0303 19:56:16.602829 16753 net.cpp:131] Top shape: 100 1 (100)
I0303 19:56:16.602831 16753 net.cpp:131] Top shape: 100 1 (100)
I0303 19:56:16.602833 16753 net.cpp:139] Memory required for data: 46568000
I0303 19:56:16.602834 16753 layer_factory.hpp:77] Creating layer label_1_slice_label_0_split
I0303 19:56:16.602838 16753 net.cpp:86] Creating Layer label_1_slice_label_0_split
I0303 19:56:16.602839 16753 net.cpp:408] label_1_slice_label_0_split <- label_1
I0303 19:56:16.602843 16753 net.cpp:382] label_1_slice_label_0_split -> label_1_slice_label_0_split_0
I0303 19:56:16.602845 16753 net.cpp:382] label_1_slice_label_0_split -> label_1_slice_label_0_split_1
I0303 19:56:16.602864 16753 net.cpp:124] Setting up label_1_slice_label_0_split
I0303 19:56:16.602866 16753 net.cpp:131] Top shape: 100 1 (100)
I0303 19:56:16.602869 16753 net.cpp:131] Top shape: 100 1 (100)
I0303 19:56:16.602869 16753 net.cpp:139] Memory required for data: 46568800
I0303 19:56:16.602871 16753 layer_factory.hpp:77] Creating layer label_2_slice_label_1_split
I0303 19:56:16.602874 16753 net.cpp:86] Creating Layer label_2_slice_label_1_split
I0303 19:56:16.613921 16753 net.cpp:408] label_2_slice_label_1_split <- label_2
I0303 19:56:16.613929 16753 net.cpp:382] label_2_slice_label_1_split -> label_2_slice_label_1_split_0
I0303 19:56:16.613935 16753 net.cpp:382] label_2_slice_label_1_split -> label_2_slice_label_1_split_1
I0303 19:56:16.613961 16753 net.cpp:124] Setting up label_2_slice_label_1_split
I0303 19:56:16.613966 16753 net.cpp:131] Top shape: 100 1 (100)
I0303 19:56:16.613968 16753 net.cpp:131] Top shape: 100 1 (100)
I0303 19:56:16.613970 16753 net.cpp:139] Memory required for data: 46569600
I0303 19:56:16.613971 16753 layer_factory.hpp:77] Creating layer label_3_slice_label_2_split
I0303 19:56:16.613975 16753 net.cpp:86] Creating Layer label_3_slice_label_2_split
I0303 19:56:16.613976 16753 net.cpp:408] label_3_slice_label_2_split <- label_3
I0303 19:56:16.613979 16753 net.cpp:382] label_3_slice_label_2_split -> label_3_slice_label_2_split_0
I0303 19:56:16.613982 16753 net.cpp:382] label_3_slice_label_2_split -> label_3_slice_label_2_split_1
I0303 19:56:16.614001 16753 net.cpp:124] Setting up label_3_slice_label_2_split
I0303 19:56:16.614003 16753 net.cpp:131] Top shape: 100 1 (100)
I0303 19:56:16.614004 16753 net.cpp:131] Top shape: 100 1 (100)
I0303 19:56:16.614006 16753 net.cpp:139] Memory required for data: 46570400
I0303 19:56:16.614007 16753 layer_factory.hpp:77] Creating layer label_4_slice_label_3_split
I0303 19:56:16.614011 16753 net.cpp:86] Creating Layer label_4_slice_label_3_split
I0303 19:56:16.614012 16753 net.cpp:408] label_4_slice_label_3_split <- label_4
I0303 19:56:16.614014 16753 net.cpp:382] label_4_slice_label_3_split -> label_4_slice_label_3_split_0
I0303 19:56:16.614017 16753 net.cpp:382] label_4_slice_label_3_split -> label_4_slice_label_3_split_1
I0303 19:56:16.614037 16753 net.cpp:124] Setting up label_4_slice_label_3_split
I0303 19:56:16.614042 16753 net.cpp:131] Top shape: 100 1 (100)
I0303 19:56:16.614043 16753 net.cpp:131] Top shape: 100 1 (100)
I0303 19:56:16.614044 16753 net.cpp:139] Memory required for data: 46571200
I0303 19:56:16.614047 16753 layer_factory.hpp:77] Creating layer conv1
I0303 19:56:16.614054 16753 net.cpp:86] Creating Layer conv1
I0303 19:56:16.614058 16753 net.cpp:408] conv1 <- data
I0303 19:56:16.614061 16753 net.cpp:382] conv1 -> conv1
I0303 19:56:16.619076 16753 net.cpp:124] Setting up conv1
I0303 19:56:16.619087 16753 net.cpp:131] Top shape: 100 20 215 175 (75250000)
I0303 19:56:16.619091 16753 net.cpp:139] Memory required for data: 347571200
I0303 19:56:16.619102 16753 layer_factory.hpp:77] Creating layer pool1
I0303 19:56:16.619109 16753 net.cpp:86] Creating Layer pool1
I0303 19:56:16.619114 16753 net.cpp:408] pool1 <- conv1
I0303 19:56:16.619119 16753 net.cpp:382] pool1 -> pool1
I0303 19:56:16.619149 16753 net.cpp:124] Setting up pool1
I0303 19:56:16.619155 16753 net.cpp:131] Top shape: 100 20 108 88 (19008000)
I0303 19:56:16.619158 16753 net.cpp:139] Memory required for data: 423603200
I0303 19:56:16.619161 16753 layer_factory.hpp:77] Creating layer relu1
I0303 19:56:16.619168 16753 net.cpp:86] Creating Layer relu1
I0303 19:56:16.619173 16753 net.cpp:408] relu1 <- pool1
I0303 19:56:16.619176 16753 net.cpp:369] relu1 -> pool1 (in-place)
I0303 19:56:16.619393 16753 net.cpp:124] Setting up relu1
I0303 19:56:16.619401 16753 net.cpp:131] Top shape: 100 20 108 88 (19008000)
I0303 19:56:16.619405 16753 net.cpp:139] Memory required for data: 499635200
I0303 19:56:16.619408 16753 layer_factory.hpp:77] Creating layer conv2
I0303 19:56:16.619416 16753 net.cpp:86] Creating Layer conv2
I0303 19:56:16.619421 16753 net.cpp:408] conv2 <- pool1
I0303 19:56:16.619426 16753 net.cpp:382] conv2 -> conv2
I0303 19:56:16.620012 16753 net.cpp:124] Setting up conv2
I0303 19:56:16.620020 16753 net.cpp:131] Top shape: 100 40 106 86 (36464000)
I0303 19:56:16.620024 16753 net.cpp:139] Memory required for data: 645491200
I0303 19:56:16.620033 16753 layer_factory.hpp:77] Creating layer pool2
I0303 19:56:16.620038 16753 net.cpp:86] Creating Layer pool2
I0303 19:56:16.620043 16753 net.cpp:408] pool2 <- conv2
I0303 19:56:16.620069 16753 net.cpp:382] pool2 -> pool2
I0303 19:56:16.620097 16753 net.cpp:124] Setting up pool2
I0303 19:56:16.620103 16753 net.cpp:131] Top shape: 100 40 53 43 (9116000)
I0303 19:56:16.620107 16753 net.cpp:139] Memory required for data: 681955200
I0303 19:56:16.620110 16753 layer_factory.hpp:77] Creating layer relu2
I0303 19:56:16.620115 16753 net.cpp:86] Creating Layer relu2
I0303 19:56:16.620118 16753 net.cpp:408] relu2 <- pool2
I0303 19:56:16.620122 16753 net.cpp:369] relu2 -> pool2 (in-place)
I0303 19:56:16.620327 16753 net.cpp:124] Setting up relu2
I0303 19:56:16.620335 16753 net.cpp:131] Top shape: 100 40 53 43 (9116000)
I0303 19:56:16.620338 16753 net.cpp:139] Memory required for data: 718419200
I0303 19:56:16.620342 16753 layer_factory.hpp:77] Creating layer conv3
I0303 19:56:16.620350 16753 net.cpp:86] Creating Layer conv3
I0303 19:56:16.620354 16753 net.cpp:408] conv3 <- pool2
I0303 19:56:16.620359 16753 net.cpp:382] conv3 -> conv3
I0303 19:56:16.621592 16753 net.cpp:124] Setting up conv3
I0303 19:56:16.621601 16753 net.cpp:131] Top shape: 100 60 49 39 (11466000)
I0303 19:56:16.621604 16753 net.cpp:139] Memory required for data: 764283200
I0303 19:56:16.621613 16753 layer_factory.hpp:77] Creating layer pool3
I0303 19:56:16.621620 16753 net.cpp:86] Creating Layer pool3
I0303 19:56:16.621624 16753 net.cpp:408] pool3 <- conv3
I0303 19:56:16.621629 16753 net.cpp:382] pool3 -> pool3
I0303 19:56:16.621659 16753 net.cpp:124] Setting up pool3
I0303 19:56:16.621665 16753 net.cpp:131] Top shape: 100 60 25 20 (3000000)
I0303 19:56:16.621668 16753 net.cpp:139] Memory required for data: 776283200
I0303 19:56:16.621671 16753 layer_factory.hpp:77] Creating layer relu3
I0303 19:56:16.621676 16753 net.cpp:86] Creating Layer relu3
I0303 19:56:16.621680 16753 net.cpp:408] relu3 <- pool3
I0303 19:56:16.621685 16753 net.cpp:369] relu3 -> pool3 (in-place)
I0303 19:56:16.621800 16753 net.cpp:124] Setting up relu3
I0303 19:56:16.621809 16753 net.cpp:131] Top shape: 100 60 25 20 (3000000)
I0303 19:56:16.621811 16753 net.cpp:139] Memory required for data: 788283200
I0303 19:56:16.621814 16753 layer_factory.hpp:77] Creating layer conv4
I0303 19:56:16.621824 16753 net.cpp:86] Creating Layer conv4
I0303 19:56:16.621826 16753 net.cpp:408] conv4 <- pool3
I0303 19:56:16.621834 16753 net.cpp:382] conv4 -> conv4
I0303 19:56:16.622568 16753 net.cpp:124] Setting up conv4
I0303 19:56:16.622580 16753 net.cpp:131] Top shape: 100 80 24 19 (3648000)
I0303 19:56:16.622582 16753 net.cpp:139] Memory required for data: 802875200
I0303 19:56:16.622588 16753 layer_factory.hpp:77] Creating layer ip1
I0303 19:56:16.622598 16753 net.cpp:86] Creating Layer ip1
I0303 19:56:16.622602 16753 net.cpp:408] ip1 <- conv4
I0303 19:56:16.622608 16753 net.cpp:382] ip1 -> ip1
I0303 19:56:16.652989 16753 net.cpp:124] Setting up ip1
I0303 19:56:16.653012 16753 net.cpp:131] Top shape: 100 120 (12000)
I0303 19:56:16.653015 16753 net.cpp:139] Memory required for data: 802923200
I0303 19:56:16.653031 16753 layer_factory.hpp:77] Creating layer ip1_ip1_0_split
I0303 19:56:16.653043 16753 net.cpp:86] Creating Layer ip1_ip1_0_split
I0303 19:56:16.653048 16753 net.cpp:408] ip1_ip1_0_split <- ip1
I0303 19:56:16.653055 16753 net.cpp:382] ip1_ip1_0_split -> ip1_ip1_0_split_0
I0303 19:56:16.653065 16753 net.cpp:382] ip1_ip1_0_split -> ip1_ip1_0_split_1
I0303 19:56:16.653071 16753 net.cpp:382] ip1_ip1_0_split -> ip1_ip1_0_split_2
I0303 19:56:16.653079 16753 net.cpp:382] ip1_ip1_0_split -> ip1_ip1_0_split_3
I0303 19:56:16.653133 16753 net.cpp:124] Setting up ip1_ip1_0_split
I0303 19:56:16.653138 16753 net.cpp:131] Top shape: 100 120 (12000)
I0303 19:56:16.653143 16753 net.cpp:131] Top shape: 100 120 (12000)
I0303 19:56:16.653148 16753 net.cpp:131] Top shape: 100 120 (12000)
I0303 19:56:16.653152 16753 net.cpp:131] Top shape: 100 120 (12000)
I0303 19:56:16.653156 16753 net.cpp:139] Memory required for data: 803115200
I0303 19:56:16.653158 16753 layer_factory.hpp:77] Creating layer ip2_label_1
I0303 19:56:16.653167 16753 net.cpp:86] Creating Layer ip2_label_1
I0303 19:56:16.653180 16753 net.cpp:408] ip2_label_1 <- ip1_ip1_0_split_0
I0303 19:56:16.653187 16753 net.cpp:382] ip2_label_1 -> ip2_label_1
I0303 19:56:16.653267 16753 net.cpp:124] Setting up ip2_label_1
I0303 19:56:16.653273 16753 net.cpp:131] Top shape: 100 2 (200)
I0303 19:56:16.653276 16753 net.cpp:139] Memory required for data: 803116000
I0303 19:56:16.653282 16753 layer_factory.hpp:77] Creating layer ip2_label_1_ip2_label_1_0_split
I0303 19:56:16.653287 16753 net.cpp:86] Creating Layer ip2_label_1_ip2_label_1_0_split
I0303 19:56:16.653291 16753 net.cpp:408] ip2_label_1_ip2_label_1_0_split <- ip2_label_1
I0303 19:56:16.653297 16753 net.cpp:382] ip2_label_1_ip2_label_1_0_split -> ip2_label_1_ip2_label_1_0_split_0
I0303 19:56:16.653303 16753 net.cpp:382] ip2_label_1_ip2_label_1_0_split -> ip2_label_1_ip2_label_1_0_split_1
I0303 19:56:16.653331 16753 net.cpp:124] Setting up ip2_label_1_ip2_label_1_0_split
I0303 19:56:16.653337 16753 net.cpp:131] Top shape: 100 2 (200)
I0303 19:56:16.653339 16753 net.cpp:131] Top shape: 100 2 (200)
I0303 19:56:16.653342 16753 net.cpp:139] Memory required for data: 803117600
I0303 19:56:16.653345 16753 layer_factory.hpp:77] Creating layer accuracy_1
I0303 19:56:16.653352 16753 net.cpp:86] Creating Layer accuracy_1
I0303 19:56:16.653355 16753 net.cpp:408] accuracy_1 <- ip2_label_1_ip2_label_1_0_split_0
I0303 19:56:16.653359 16753 net.cpp:408] accuracy_1 <- label_1_slice_label_0_split_0
…
