…
I0305 15:58:09.283429  9448 net.cpp:296] The NetState phase (0) differed from the phase (1) specified by a rule in layer accuracy_4
I0305 15:58:09.283526  9448 net.cpp:53] Initializing net from parameters: 
name: "bupt_wangnet"
state {
  phase: TRAIN
  level: 0
  stage: ""
}
layer {
  name: "data"
  type: "Data"
  top: "data"
  top: "label"
  include {
    phase: TRAIN
  }
  transform_param {
    mirror: true
    mean_file: "/home/wang/disk_4T/wang_data/convert_dataset/CelebA/CelebA.binaryproto"
  }
  data_param {
    source: "/home/wang/disk_4T/wang_data/convert_dataset/CelebA/lmdb_train"
    scale: 0.02
    batch_size: 256
    backend: LMDB
  }
}
layer {
  name: "slice_label"
  type: "Slice"
  bottom: "label"
  top: "label_1"
  top: "label_2"
  top: "label_3"
  top: "label_4"
  slice_param {
    slice_point: 1
    slice_point: 2
    slice_point: 3
    axis: 1
  }
}
layer {
  name: "conv1"
  type: "Convolution"
  bottom: "data"
  top: "conv1"
  param {
    lr_mult: 1
    decay_mult: 1
  }
  param {
    lr_mult: 2
    decay_mult: 0
  }
  convolution_param {
    num_output: 20
    pad: 0
    kernel_size: 4
    stride: 1
    weight_filler {
      type: "xavier"
    }
    bias_filler {
      type: "constant"
      value: 0.1
    }
  }
}
layer {
  name: "pool1"
  type: "Pooling"
  bottom: "conv1"
  top: "pool1"
  pooling_param {
    pool: MAX
    kernel_size: 2
    stride: 2
  }
}
layer {
  name: "relu1"
  type: "ReLU"
  bottom: "pool1"
  top: "pool1"
}
layer {
  name: "conv2"
  type: "Convolution"
  bottom: "pool1"
  top: "conv2"
  param {
    lr_mult: 1
    decay_mult: 1
  }
  param {
    lr_mult: 2
    decay_mult: 0
  }
  convolution_param {
    num_output: 40
    kernel_size: 3
    stride: 1
    weight_filler {
      type: "xavier"
    }
    bias_filler {
      type: "constant"
      value: 0.1
    }
  }
}
layer {
  name: "pool2"
  type: "Pooling"
  bottom: "conv2"
  top: "pool2"
  pooling_param {
    pool: MAX
    kernel_size: 2
    stride: 2
  }
}
layer {
  name: "relu2"
  type: "ReLU"
  bottom: "pool2"
  top: "pool2"
}
layer {
  name: "conv3"
  type: "Convolution"
  bottom: "pool2"
  top: "conv3"
  param {
    lr_mult: 1
    decay_mult: 1
  }
  param {
    lr_mult: 2
    decay_mult: 0
  }
  convolution_param {
    num_output: 60
    kernel_size: 5
    stride: 1
    weight_filler {
      type: "xavier"
    }
    bias_filler {
      type: "constant"
      value: 0.1
    }
  }
}
layer {
  name: "pool3"
  type: "Pooling"
  bottom: "conv3"
  top: "pool3"
  pooling_param {
    pool: MAX
    kernel_size: 2
    stride: 2
  }
}
layer {
  name: "relu3"
  type: "ReLU"
  bottom: "pool3"
  top: "pool3"
}
layer {
  name: "conv4"
  type: "Convolution"
  bottom: "pool3"
  top: "conv4"
  param {
    lr_mult: 1
    decay_mult: 1
  }
  param {
    lr_mult: 2
    decay_mult: 0
  }
  convolution_param {
    num_output: 80
    kernel_size: 2
    stride: 1
    weight_filler {
      type: "xavier"
    }
    bias_filler {
      type: "constant"
      value: 0.1
    }
  }
}
layer {
  name: "ip1"
  type: "InnerProduct"
  bottom: "conv4"
  top: "ip1"
  param {
    lr_mult: 1
    decay_mult: 250
  }
  param {
    lr_mult: 2
    decay_mult: 0
  }
  inner_product_param {
    num_output: 120
    weight_filler {
      type: "gaussian"
      std: 0.01
    }
    bias_filler {
      type: "constant"
    }
  }
}
layer {
  name: "ip2_label_1"
  type: "InnerProduct"
  bottom: "ip1"
  top: "ip2_label_1"
  param {
    lr_mult: 1
    decay_mult: 250
  }
  param {
    lr_mult: 2
    decay_mult: 0
  }
  inner_product_param {
    num_output: 2
    weight_filler {
      type: "gaussian"
      std: 0.01
    }
    bias_filler {
      type: "constant"
    }
  }
}
layer {
  name: "loss_1"
  type: "SoftmaxWithLoss"
  bottom: "ip2_label_1"
  bottom: "label_1"
  top: "loss_1"
}
layer {
  name: "ip2_label_2"
  type: "InnerProduct"
  bottom: "ip1"
  top: "ip2_label_2"
  param {
    lr_mult: 1
    decay_mult: 250
  }
  param {
    lr_mult: 2
    decay_mult: 0
  }
  inner_product_param {
    num_output: 2
    weight_filler {
      type: "gaussian"
      std: 0.01
    }
    bias_filler {
      type: "constant"
    }
  }
}
layer {
  name: "loss_2"
  type: "SoftmaxWithLoss"
  bottom: "ip2_label_2"
  bottom: "label_2"
  top: "loss_2"
}
layer {
  name: "ip2_label_3"
  type: "InnerProduct"
  bottom: "ip1"
  top: "ip2_label_3"
  param {
    lr_mult: 1
    decay_mult: 250
  }
  param {
    lr_mult: 2
    decay_mult: 0
  }
  inner_product_param {
    num_output: 2
    weight_filler {
      type: "gaussian"
      std: 0.01
    }
    bias_filler {
      type: "constant"
    }
  }
}
layer {
  name: "loss_3"
  type: "SoftmaxWithLoss"
  bottom: "ip2_label_3"
  bottom: "label_3"
  top: "loss_3"
}
layer {
  name: "ip2_label_4"
  type: "InnerProduct"
  bottom: "ip1"
  top: "ip2_label_4"
  param {
    lr_mult: 1
    decay_mult: 250
  }
  param {
    lr_mult: 2
    decay_mult: 0
  }
  inner_product_param {
    num_output: 2
    weight_filler {
      type: "gaussian"
      std: 0.01
    }
    bias_filler {
      type: "constant"
    }
  }
}
layer {
  name: "loss_4"
  type: "SoftmaxWithLoss"
  bottom: "ip2_label_4"
  bottom: "label_4"
  top: "loss_4"
}
I0305 15:58:09.283619  9448 layer_factory.hpp:77] Creating layer data
I0305 15:58:09.283704  9448 db_lmdb.cpp:35] Opened lmdb /home/wang/disk_4T/wang_data/convert_dataset/CelebA/lmdb_train
I0305 15:58:09.283723  9448 net.cpp:86] Creating Layer data
I0305 15:58:09.283731  9448 net.cpp:382] data -> data
I0305 15:58:09.283745  9448 net.cpp:382] data -> label
I0305 15:58:09.283752  9448 data_transformer.cpp:25] Loading mean file from: /home/wang/disk_4T/wang_data/convert_dataset/CelebA/CelebA.binaryproto
I0305 15:58:09.285526  9448 data_layer.cpp:45] output data size: 256,3,218,178
I0305 15:58:09.449836  9448 net.cpp:124] Setting up data
I0305 15:58:09.449856  9448 net.cpp:131] Top shape: 256 3 218 178 (29801472)
I0305 15:58:09.449861  9448 net.cpp:131] Top shape: 256 4 (1024)
I0305 15:58:09.449862  9448 net.cpp:139] Memory required for data: 119209984
I0305 15:58:09.449869  9448 layer_factory.hpp:77] Creating layer slice_label
I0305 15:58:09.449879  9448 net.cpp:86] Creating Layer slice_label
I0305 15:58:09.449884  9448 net.cpp:408] slice_label <- label
I0305 15:58:09.449893  9448 net.cpp:382] slice_label -> label_1
I0305 15:58:09.449903  9448 net.cpp:382] slice_label -> label_2
I0305 15:58:09.449908  9448 net.cpp:382] slice_label -> label_3
I0305 15:58:09.449911  9448 net.cpp:382] slice_label -> label_4
I0305 15:58:09.449961  9448 net.cpp:124] Setting up slice_label
I0305 15:58:09.449965  9448 net.cpp:131] Top shape: 256 1 (256)
I0305 15:58:09.449968  9448 net.cpp:131] Top shape: 256 1 (256)
I0305 15:58:09.449970  9448 net.cpp:131] Top shape: 256 1 (256)
I0305 15:58:09.449972  9448 net.cpp:131] Top shape: 256 1 (256)
I0305 15:58:09.449973  9448 net.cpp:139] Memory required for data: 119214080
I0305 15:58:09.449975  9448 layer_factory.hpp:77] Creating layer conv1
I0305 15:58:09.449985  9448 net.cpp:86] Creating Layer conv1
I0305 15:58:09.449987  9448 net.cpp:408] conv1 <- data
I0305 15:58:09.450003  9448 net.cpp:382] conv1 -> conv1
I0305 15:58:09.569473  9448 net.cpp:124] Setting up conv1
I0305 15:58:09.569494  9448 net.cpp:131] Top shape: 256 20 215 175 (192640000)
I0305 15:58:09.569495  9448 net.cpp:139] Memory required for data: 889774080
I0305 15:58:09.569512  9448 layer_factory.hpp:77] Creating layer pool1
I0305 15:58:09.569520  9448 net.cpp:86] Creating Layer pool1
I0305 15:58:09.569524  9448 net.cpp:408] pool1 <- conv1
I0305 15:58:09.569528  9448 net.cpp:382] pool1 -> pool1
I0305 15:58:09.569561  9448 net.cpp:124] Setting up pool1
I0305 15:58:09.569566  9448 net.cpp:131] Top shape: 256 20 108 88 (48660480)
I0305 15:58:09.569567  9448 net.cpp:139] Memory required for data: 1084416000
I0305 15:58:09.569568  9448 layer_factory.hpp:77] Creating layer relu1
I0305 15:58:09.569572  9448 net.cpp:86] Creating Layer relu1
I0305 15:58:09.569574  9448 net.cpp:408] relu1 <- pool1
I0305 15:58:09.569577  9448 net.cpp:369] relu1 -> pool1 (in-place)
I0305 15:58:09.569782  9448 net.cpp:124] Setting up relu1
I0305 15:58:09.569792  9448 net.cpp:131] Top shape: 256 20 108 88 (48660480)
I0305 15:58:09.569794  9448 net.cpp:139] Memory required for data: 1279057920
I0305 15:58:09.569797  9448 layer_factory.hpp:77] Creating layer conv2
I0305 15:58:09.569804  9448 net.cpp:86] Creating Layer conv2
I0305 15:58:09.569806  9448 net.cpp:408] conv2 <- pool1
I0305 15:58:09.569810  9448 net.cpp:382] conv2 -> conv2
I0305 15:58:09.570827  9448 net.cpp:124] Setting up conv2
I0305 15:58:09.570835  9448 net.cpp:131] Top shape: 256 40 106 86 (93347840)
I0305 15:58:09.570837  9448 net.cpp:139] Memory required for data: 1652449280
I0305 15:58:09.570842  9448 layer_factory.hpp:77] Creating layer pool2
I0305 15:58:09.570847  9448 net.cpp:86] Creating Layer pool2
I0305 15:58:09.570849  9448 net.cpp:408] pool2 <- conv2
I0305 15:58:09.570852  9448 net.cpp:382] pool2 -> pool2
I0305 15:58:09.570874  9448 net.cpp:124] Setting up pool2
I0305 15:58:09.570878  9448 net.cpp:131] Top shape: 256 40 53 43 (23336960)
I0305 15:58:09.570880  9448 net.cpp:139] Memory required for data: 1745797120
I0305 15:58:09.570881  9448 layer_factory.hpp:77] Creating layer relu2
I0305 15:58:09.570884  9448 net.cpp:86] Creating Layer relu2
I0305 15:58:09.570886  9448 net.cpp:408] relu2 <- pool2
I0305 15:58:09.570889  9448 net.cpp:369] relu2 -> pool2 (in-place)
I0305 15:58:09.570988  9448 net.cpp:124] Setting up relu2
I0305 15:58:09.570994  9448 net.cpp:131] Top shape: 256 40 53 43 (23336960)
I0305 15:58:09.570996  9448 net.cpp:139] Memory required for data: 1839144960
I0305 15:58:09.570997  9448 layer_factory.hpp:77] Creating layer conv3
I0305 15:58:09.571003  9448 net.cpp:86] Creating Layer conv3
I0305 15:58:09.571004  9448 net.cpp:408] conv3 <- pool2
I0305 15:58:09.571007  9448 net.cpp:382] conv3 -> conv3
I0305 15:58:09.572123  9448 net.cpp:124] Setting up conv3
I0305 15:58:09.572131  9448 net.cpp:131] Top shape: 256 60 49 39 (29352960)
I0305 15:58:09.572134  9448 net.cpp:139] Memory required for data: 1956556800
I0305 15:58:09.572139  9448 layer_factory.hpp:77] Creating layer pool3
I0305 15:58:09.572144  9448 net.cpp:86] Creating Layer pool3
I0305 15:58:09.572146  9448 net.cpp:408] pool3 <- conv3
I0305 15:58:09.572149  9448 net.cpp:382] pool3 -> pool3
I0305 15:58:09.572173  9448 net.cpp:124] Setting up pool3
I0305 15:58:09.572177  9448 net.cpp:131] Top shape: 256 60 25 20 (7680000)
I0305 15:58:09.572178  9448 net.cpp:139] Memory required for data: 1987276800
I0305 15:58:09.572180  9448 layer_factory.hpp:77] Creating layer relu3
I0305 15:58:09.572183  9448 net.cpp:86] Creating Layer relu3
I0305 15:58:09.572185  9448 net.cpp:408] relu3 <- pool3
I0305 15:58:09.572187  9448 net.cpp:369] relu3 -> pool3 (in-place)
I0305 15:58:09.572290  9448 net.cpp:124] Setting up relu3
I0305 15:58:09.572295  9448 net.cpp:131] Top shape: 256 60 25 20 (7680000)
I0305 15:58:09.572298  9448 net.cpp:139] Memory required for data: 2017996800
I0305 15:58:09.572299  9448 layer_factory.hpp:77] Creating layer conv4
I0305 15:58:09.572304  9448 net.cpp:86] Creating Layer conv4
I0305 15:58:09.572317  9448 net.cpp:408] conv4 <- pool3
I0305 15:58:09.572320  9448 net.cpp:382] conv4 -> conv4
I0305 15:58:09.573144  9448 net.cpp:124] Setting up conv4
I0305 15:58:09.573153  9448 net.cpp:131] Top shape: 256 80 24 19 (9338880)
I0305 15:58:09.573154  9448 net.cpp:139] Memory required for data: 2055352320
I0305 15:58:09.573158  9448 layer_factory.hpp:77] Creating layer ip1
I0305 15:58:09.573163  9448 net.cpp:86] Creating Layer ip1
I0305 15:58:09.573166  9448 net.cpp:408] ip1 <- conv4
I0305 15:58:09.573169  9448 net.cpp:382] ip1 -> ip1
I0305 15:58:09.621537  9448 net.cpp:124] Setting up ip1
I0305 15:58:09.621556  9448 net.cpp:131] Top shape: 256 120 (30720)
I0305 15:58:09.621558  9448 net.cpp:139] Memory required for data: 2055475200
I0305 15:58:09.621569  9448 layer_factory.hpp:77] Creating layer ip1_ip1_0_split
I0305 15:58:09.621577  9448 net.cpp:86] Creating Layer ip1_ip1_0_split
I0305 15:58:09.621580  9448 net.cpp:408] ip1_ip1_0_split <- ip1
I0305 15:58:09.621584  9448 net.cpp:382] ip1_ip1_0_split -> ip1_ip1_0_split_0
I0305 15:58:09.621592  9448 net.cpp:382] ip1_ip1_0_split -> ip1_ip1_0_split_1
I0305 15:58:09.621595  9448 net.cpp:382] ip1_ip1_0_split -> ip1_ip1_0_split_2
I0305 15:58:09.621600  9448 net.cpp:382] ip1_ip1_0_split -> ip1_ip1_0_split_3
I0305 15:58:09.621632  9448 net.cpp:124] Setting up ip1_ip1_0_split
I0305 15:58:09.621636  9448 net.cpp:131] Top shape: 256 120 (30720)
I0305 15:58:09.621639  9448 net.cpp:131] Top shape: 256 120 (30720)
I0305 15:58:09.621640  9448 net.cpp:131] Top shape: 256 120 (30720)
I0305 15:58:09.621642  9448 net.cpp:131] Top shape: 256 120 (30720)
I0305 15:58:09.621644  9448 net.cpp:139] Memory required for data: 2055966720
I0305 15:58:09.621645  9448 layer_factory.hpp:77] Creating layer ip2_label_1
I0305 15:58:09.621651  9448 net.cpp:86] Creating Layer ip2_label_1
I0305 15:58:09.621654  9448 net.cpp:408] ip2_label_1 <- ip1_ip1_0_split_0
I0305 15:58:09.621657  9448 net.cpp:382] ip2_label_1 -> ip2_label_1
I0305 15:58:09.621716  9448 net.cpp:124] Setting up ip2_label_1
I0305 15:58:09.621719  9448 net.cpp:131] Top shape: 256 2 (512)
I0305 15:58:09.621721  9448 net.cpp:139] Memory required for data: 2055968768
I0305 15:58:09.621723  9448 layer_factory.hpp:77] Creating layer loss_1
I0305 15:58:09.621727  9448 net.cpp:86] Creating Layer loss_1
I0305 15:58:09.621728  9448 net.cpp:408] loss_1 <- ip2_label_1
I0305 15:58:09.621731  9448 net.cpp:408] loss_1 <- label_1
I0305 15:58:09.621733  9448 net.cpp:382] loss_1 -> loss_1
I0305 15:58:09.621739  9448 layer_factory.hpp:77] Creating layer loss_1
I0305 15:58:09.622151  9448 net.cpp:124] Setting up loss_1
I0305 15:58:09.622160  9448 net.cpp:131] Top shape: (1)
I0305 15:58:09.622162  9448 net.cpp:134]     with loss weight 1
I0305 15:58:09.622174  9448 net.cpp:139] Memory required for data: 2055968772
I0305 15:58:09.622177  9448 layer_factory.hpp:77] Creating layer ip2_label_2
I0305 15:58:09.622185  9448 net.cpp:86] Creating Layer ip2_label_2
I0305 15:58:09.622189  9448 net.cpp:408] ip2_label_2 <- ip1_ip1_0_split_1
I0305 15:58:09.622195  9448 net.cpp:382] ip2_label_2 -> ip2_label_2
I0305 15:58:09.622256  9448 net.cpp:124] Setting up ip2_label_2
I0305 15:58:09.622262  9448 net.cpp:131] Top shape: 256 2 (512)
I0305 15:58:09.622262  9448 net.cpp:139] Memory required for data: 2055970820
I0305 15:58:09.622267  9448 layer_factory.hpp:77] Creating layer loss_2
I0305 15:58:09.622272  9448 net.cpp:86] Creating Layer loss_2
I0305 15:58:09.622275  9448 net.cpp:408] loss_2 <- ip2_label_2
I0305 15:58:09.622278  9448 net.cpp:408] loss_2 <- label_2
I0305 15:58:09.622280  9448 net.cpp:382] loss_2 -> loss_2
I0305 15:58:09.622284  9448 layer_factory.hpp:77] Creating layer loss_2
I0305 15:58:09.622445  9448 net.cpp:124] Setting up loss_2
I0305 15:58:09.622452  9448 net.cpp:131] Top shape: (1)
I0305 15:58:09.622452  9448 net.cpp:134]     with loss weight 1
I0305 15:58:09.622455  9448 net.cpp:139] Memory required for data: 2055970824
I0305 15:58:09.622457  9448 layer_factory.hpp:77] Creating layer ip2_label_3
I0305 15:58:09.622462  9448 net.cpp:86] Creating Layer ip2_label_3
I0305 15:58:09.622474  9448 net.cpp:408] ip2_label_3 <- ip1_ip1_0_split_2
I0305 15:58:09.622479  9448 net.cpp:382] ip2_label_3 -> ip2_label_3
I0305 15:58:09.622541  9448 net.cpp:124] Setting up ip2_label_3
I0305 15:58:09.622545  9448 net.cpp:131] Top shape: 256 2 (512)
I0305 15:58:09.622546  9448 net.cpp:139] Memory required for data: 2055972872
I0305 15:58:09.622550  9448 layer_factory.hpp:77] Creating layer loss_3
I0305 15:58:09.622552  9448 net.cpp:86] Creating Layer loss_3
I0305 15:58:09.622555  9448 net.cpp:408] loss_3 <- ip2_label_3
I0305 15:58:09.622556  9448 net.cpp:408] loss_3 <- label_3
I0305 15:58:09.622560  9448 net.cpp:382] loss_3 -> loss_3
I0305 15:58:09.622563  9448 layer_factory.hpp:77] Creating layer loss_3
I0305 15:58:09.622825  9448 net.cpp:124] Setting up loss_3
I0305 15:58:09.622833  9448 net.cpp:131] Top shape: (1)
I0305 15:58:09.622834  9448 net.cpp:134]     with loss weight 1
I0305 15:58:09.622838  9448 net.cpp:139] Memory required for data: 2055972876
I0305 15:58:09.622839  9448 layer_factory.hpp:77] Creating layer ip2_label_4
I0305 15:58:09.622844  9448 net.cpp:86] Creating Layer ip2_label_4
I0305 15:58:09.622848  9448 net.cpp:408] ip2_label_4 <- ip1_ip1_0_split_3
I0305 15:58:09.622850  9448 net.cpp:382] ip2_label_4 -> ip2_label_4
I0305 15:58:09.622911  9448 net.cpp:124] Setting up ip2_label_4
I0305 15:58:09.622916  9448 net.cpp:131] Top shape: 256 2 (512)
I0305 15:58:09.622918  9448 net.cpp:139] Memory required for data: 2055974924
I0305 15:58:09.622923  9448 layer_factory.hpp:77] Creating layer loss_4
I0305 15:58:09.622927  9448 net.cpp:86] Creating Layer loss_4
I0305 15:58:09.622930  9448 net.cpp:408] loss_4 <- ip2_label_4
I0305 15:58:09.622931  9448 net.cpp:408] loss_4 <- label_4
I0305 15:58:09.622936  9448 net.cpp:382] loss_4 -> loss_4
…
I0305 15:58:09.623386  9448 net.cpp:296] The NetState phase (1) differed from the phase (0) specified by a rule in layer data
I0305 15:58:09.623497  9448 net.cpp:53] Initializing net from parameters: 
name: "bupt_wangnet"
state {
  phase: TEST
}
layer {
  name: "data"
  type: "Data"
  top: "data"
  top: "label"
  include {
    phase: TEST
  }
  transform_param {
    mirror: false
    mean_file: "/home/wang/disk_4T/wang_data/convert_dataset/CelebA/CelebA.binaryproto"
  }
  data_param {
    source: "/home/wang/disk_4T/wang_data/convert_dataset/CelebA/lmdb_test"
    scale: 0.02
    batch_size: 50
    backend: LMDB
  }
}
layer {
  name: "slice_label"
  type: "Slice"
  bottom: "label"
  top: "label_1"
  top: "label_2"
  top: "label_3"
  top: "label_4"
  slice_param {
    slice_point: 1
    slice_point: 2
    slice_point: 3
    axis: 1
  }
}
layer {
  name: "conv1"
  type: "Convolution"
  bottom: "data"
  top: "conv1"
  param {
    lr_mult: 1
    decay_mult: 1
  }
  param {
    lr_mult: 2
    decay_mult: 0
  }
  convolution_param {
    num_output: 20
    pad: 0
    kernel_size: 4
    stride: 1
    weight_filler {
      type: "xavier"
    }
    bias_filler {
      type: "constant"
      value: 0.1
    }
  }
}
layer {
  name: "pool1"
  type: "Pooling"
  bottom: "conv1"
  top: "pool1"
  pooling_param {
    pool: MAX
    kernel_size: 2
    stride: 2
  }
}
layer {
  name: "relu1"
  type: "ReLU"
  bottom: "pool1"
  top: "pool1"
}
layer {
  name: "conv2"
  type: "Convolution"
  bottom: "pool1"
  top: "conv2"
  param {
    lr_mult: 1
    decay_mult: 1
  }
  param {
    lr_mult: 2
    decay_mult: 0
  }
  convolution_param {
    num_output: 40
    kernel_size: 3
    stride: 1
    weight_filler {
      type: "xavier"
    }
    bias_filler {
      type: "constant"
      value: 0.1
    }
  }
}
layer {
  name: "pool2"
  type: "Pooling"
  bottom: "conv2"
  top: "pool2"
  pooling_param {
    pool: MAX
    kernel_size: 2
    stride: 2
  }
}
layer {
  name: "relu2"
  type: "ReLU"
  bottom: "pool2"
  top: "pool2"
}
layer {
  name: "conv3"
  type: "Convolution"
  bottom: "pool2"
  top: "conv3"
  param {
    lr_mult: 1
    decay_mult: 1
  }
  param {
    lr_mult: 2
    decay_mult: 0
  }
  convolution_param {
    num_output: 60
    kernel_size: 5
    stride: 1
    weight_filler {
      type: "xavier"
    }
    bias_filler {
      type: "constant"
      value: 0.1
    }
  }
}
layer {
  name: "pool3"
  type: "Pooling"
  bottom: "conv3"
  top: "pool3"
  pooling_param {
    pool: MAX
    kernel_size: 2
    stride: 2
  }
}
layer {
  name: "relu3"
  type: "ReLU"
  bottom: "pool3"
  top: "pool3"
}
layer {
  name: "conv4"
  type: "Convolution"
  bottom: "pool3"
  top: "conv4"
  param {
    lr_mult: 1
    decay_mult: 1
  }
  param {
    lr_mult: 2
    decay_mult: 0
  }
  convolution_param {
    num_output: 80
    kernel_size: 2
    stride: 1
    weight_filler {
      type: "xavier"
    }
    bias_filler {
      type: "constant"
      value: 0.1
    }
  }
}
layer {
  name: "ip1"
  type: "InnerProduct"
  bottom: "conv4"
  top: "ip1"
  param {
    lr_mult: 1
    decay_mult: 250
  }
  param {
    lr_mult: 2
    decay_mult: 0
  }
  inner_product_param {
    num_output: 120
    weight_filler {
      type: "gaussian"
      std: 0.01
    }
    bias_filler {
      type: "constant"
    }
  }
}
layer {
  name: "ip2_label_1"
  type: "InnerProduct"
  bottom: "ip1"
  top: "ip2_label_1"
  param {
    lr_mult: 1
    decay_mult: 250
  }
  param {
    lr_mult: 2
    decay_mult: 0
  }
  inner_product_param {
    num_output: 2
    weight_filler {
      type: "gaussian"
      std: 0.01
    }
    bias_filler {
      type: "constant"
    }
  }
}
layer {
  name: "accuracy_1"
  type: "Accuracy"
  bottom: "ip2_label_1"
  bottom: "label_1"
  top: "accuracy_1"
  include {
    phase: TEST
  }
}
layer {
  name: "loss_1"
  type: "SoftmaxWithLoss"
  bottom: "ip2_label_1"
  bottom: "label_1"
  top: "loss_1"
}
layer {
  name: "ip2_label_2"
  type: "InnerProduct"
  bottom: "ip1"
  top: "ip2_label_2"
  param {
    lr_mult: 1
    decay_mult: 250
  }
  param {
    lr_mult: 2
    decay_mult: 0
  }
  inner_product_param {
    num_output: 2
    weight_filler {
      type: "gaussian"
      std: 0.01
    }
    bias_filler {
      type: "constant"
    }
  }
}
layer {
  name: "accuracy_2"
  type: "Accuracy"
  bottom: "ip2_label_2"
  bottom: "label_2"
  top: "accuracy_2"
  include {
    phase: TEST
  }
}
layer {
  name: "loss_2"
  type: "SoftmaxWithLoss"
  bottom: "ip2_label_2"
  bottom: "label_2"
  top: "loss_2"
}
layer {
  name: "ip2_label_3"
  type: "InnerProduct"
  bottom: "ip1"
  top: "ip2_label_3"
  param {
    lr_mult: 1
    decay_mult: 250
  }
  param {
    lr_mult: 2
    decay_mult: 0
  }
  inner_product_param {
    num_output: 2
    weight_filler {
      type: "gaussian"
      std: 0.01
    }
    bias_filler {
      type: "constant"
    }
  }
}
layer {
  name: "accuracy_3"
  type: "Accuracy"
  bottom: "ip2_label_3"
  bottom: "label_3"
  top: "accuracy_3"
  include {
    phase: TEST
  }
}
layer {
  name: "loss_3"
  type: "SoftmaxWithLoss"
  bottom: "ip2_label_3"
  bottom: "label_3"
  top: "loss_3"
}
layer {
  name: "ip2_label_4"
  type: "InnerProduct"
  bottom: "ip1"
  top: "ip2_label_4"
  param {
    lr_mult: 1
    decay_mult: 250
  }
  param {
    lr_mult: 2
    decay_mult: 0
  }
  inner_product_param {
    num_output: 2
    weight_filler {
      type: "gaussian"
      std: 0.01
    }
    bias_filler {
      type: "constant"
    }
  }
}
layer {
  name: "accuracy_4"
  type: "Accuracy"
  bottom: "ip2_label_4"
  bottom: "label_4"
  top: "accuracy_4"
  include {
    phase: TEST
  }
}
layer {
  name: "loss_4"
  type: "SoftmaxWithLoss"
  bottom: "ip2_label_4"
  bottom: "label_4"
  top: "loss_4"
}
I0305 15:58:09.623594  9448 layer_factory.hpp:77] Creating layer data
I0305 15:58:09.623636  9448 db_lmdb.cpp:35] Opened lmdb /home/wang/disk_4T/wang_data/convert_dataset/CelebA/lmdb_test
I0305 15:58:09.623648  9448 net.cpp:86] Creating Layer data
I0305 15:58:09.623652  9448 net.cpp:382] data -> data
I0305 15:58:09.623656  9448 net.cpp:382] data -> label
I0305 15:58:09.623661  9448 data_transformer.cpp:25] Loading mean file from: /home/wang/disk_4T/wang_data/convert_dataset/CelebA/CelebA.binaryproto
I0305 15:58:09.624516  9448 data_layer.cpp:45] output data size: 50,3,218,178
I0305 15:58:09.657923  9448 net.cpp:124] Setting up data
I0305 15:58:09.657944  9448 net.cpp:131] Top shape: 50 3 218 178 (5820600)
I0305 15:58:09.657948  9448 net.cpp:131] Top shape: 50 4 (200)
I0305 15:58:09.657949  9448 net.cpp:139] Memory required for data: 23283200
I0305 15:58:09.657953  9448 layer_factory.hpp:77] Creating layer slice_label
I0305 15:58:09.657964  9448 net.cpp:86] Creating Layer slice_label
I0305 15:58:09.657966  9448 net.cpp:408] slice_label <- label
I0305 15:58:09.657971  9448 net.cpp:382] slice_label -> label_1
I0305 15:58:09.657979  9448 net.cpp:382] slice_label -> label_2
I0305 15:58:09.657982  9448 net.cpp:382] slice_label -> label_3
I0305 15:58:09.657985  9448 net.cpp:382] slice_label -> label_4
I0305 15:58:09.658073  9448 net.cpp:124] Setting up slice_label
I0305 15:58:09.658079  9448 net.cpp:131] Top shape: 50 1 (50)
I0305 15:58:09.658082  9448 net.cpp:131] Top shape: 50 1 (50)
I0305 15:58:09.658083  9448 net.cpp:131] Top shape: 50 1 (50)
I0305 15:58:09.658085  9448 net.cpp:131] Top shape: 50 1 (50)
I0305 15:58:09.658087  9448 net.cpp:139] Memory required for data: 23284000
I0305 15:58:09.658088  9448 layer_factory.hpp:77] Creating layer label_1_slice_label_0_split
I0305 15:58:09.658092  9448 net.cpp:86] Creating Layer label_1_slice_label_0_split
I0305 15:58:09.658095  9448 net.cpp:408] label_1_slice_label_0_split <- label_1
I0305 15:58:09.658098  9448 net.cpp:382] label_1_slice_label_0_split -> label_1_slice_label_0_split_0
I0305 15:58:09.658102  9448 net.cpp:382] label_1_slice_label_0_split -> label_1_slice_label_0_split_1
I0305 15:58:09.658121  9448 net.cpp:124] Setting up label_1_slice_label_0_split
I0305 15:58:09.658135  9448 net.cpp:131] Top shape: 50 1 (50)
I0305 15:58:09.658138  9448 net.cpp:131] Top shape: 50 1 (50)
I0305 15:58:09.658139  9448 net.cpp:139] Memory required for data: 23284400
I0305 15:58:09.658140  9448 layer_factory.hpp:77] Creating layer label_2_slice_label_1_split
I0305 15:58:09.658143  9448 net.cpp:86] Creating Layer label_2_slice_label_1_split
I0305 15:58:09.658145  9448 net.cpp:408] label_2_slice_label_1_split <- label_2
I0305 15:58:09.658149  9448 net.cpp:382] label_2_slice_label_1_split -> label_2_slice_label_1_split_0
I0305 15:58:09.658152  9448 net.cpp:382] label_2_slice_label_1_split -> label_2_slice_label_1_split_1
I0305 15:58:09.658171  9448 net.cpp:124] Setting up label_2_slice_label_1_split
I0305 15:58:09.658174  9448 net.cpp:131] Top shape: 50 1 (50)
I0305 15:58:09.658176  9448 net.cpp:131] Top shape: 50 1 (50)
I0305 15:58:09.658177  9448 net.cpp:139] Memory required for data: 23284800
I0305 15:58:09.658179  9448 layer_factory.hpp:77] Creating layer label_3_slice_label_2_split
I0305 15:58:09.658182  9448 net.cpp:86] Creating Layer label_3_slice_label_2_split
I0305 15:58:09.658185  9448 net.cpp:408] label_3_slice_label_2_split <- label_3
I0305 15:58:09.658186  9448 net.cpp:382] label_3_slice_label_2_split -> label_3_slice_label_2_split_0
I0305 15:58:09.658190  9448 net.cpp:382] label_3_slice_label_2_split -> label_3_slice_label_2_split_1
I0305 15:58:09.658206  9448 net.cpp:124] Setting up label_3_slice_label_2_split
I0305 15:58:09.658210  9448 net.cpp:131] Top shape: 50 1 (50)
I0305 15:58:09.658211  9448 net.cpp:131] Top shape: 50 1 (50)
I0305 15:58:09.658212  9448 net.cpp:139] Memory required for data: 23285200
I0305 15:58:09.658215  9448 layer_factory.hpp:77] Creating layer label_4_slice_label_3_split
I0305 15:58:09.658216  9448 net.cpp:86] Creating Layer label_4_slice_label_3_split
I0305 15:58:09.658218  9448 net.cpp:408] label_4_slice_label_3_split <- label_4
I0305 15:58:09.658221  9448 net.cpp:382] label_4_slice_label_3_split -> label_4_slice_label_3_split_0
I0305 15:58:09.658224  9448 net.cpp:382] label_4_slice_label_3_split -> label_4_slice_label_3_split_1
I0305 15:58:09.658241  9448 net.cpp:124] Setting up label_4_slice_label_3_split
I0305 15:58:09.658243  9448 net.cpp:131] Top shape: 50 1 (50)
I0305 15:58:09.658246  9448 net.cpp:131] Top shape: 50 1 (50)
I0305 15:58:09.658246  9448 net.cpp:139] Memory required for data: 23285600
I0305 15:58:09.658248  9448 layer_factory.hpp:77] Creating layer conv1
I0305 15:58:09.658255  9448 net.cpp:86] Creating Layer conv1
I0305 15:58:09.658257  9448 net.cpp:408] conv1 <- data
I0305 15:58:09.658260  9448 net.cpp:382] conv1 -> conv1
I0305 15:58:09.659132  9448 net.cpp:124] Setting up conv1
I0305 15:58:09.659140  9448 net.cpp:131] Top shape: 50 20 215 175 (37625000)
I0305 15:58:09.659142  9448 net.cpp:139] Memory required for data: 173785600
I0305 15:58:09.659149  9448 layer_factory.hpp:77] Creating layer pool1
I0305 15:58:09.659154  9448 net.cpp:86] Creating Layer pool1
I0305 15:58:09.659158  9448 net.cpp:408] pool1 <- conv1
I0305 15:58:09.659162  9448 net.cpp:382] pool1 -> pool1
I0305 15:58:09.662684  9448 net.cpp:124] Setting up pool1
I0305 15:58:09.662691  9448 net.cpp:131] Top shape: 50 20 108 88 (9504000)
I0305 15:58:09.662693  9448 net.cpp:139] Memory required for data: 211801600
I0305 15:58:09.662695  9448 layer_factory.hpp:77] Creating layer relu1
I0305 15:58:09.662703  9448 net.cpp:86] Creating Layer relu1
I0305 15:58:09.662706  9448 net.cpp:408] relu1 <- pool1
I0305 15:58:09.662710  9448 net.cpp:369] relu1 -> pool1 (in-place)
I0305 15:58:09.662935  9448 net.cpp:124] Setting up relu1
I0305 15:58:09.662942  9448 net.cpp:131] Top shape: 50 20 108 88 (9504000)
I0305 15:58:09.662943  9448 net.cpp:139] Memory required for data: 249817600
I0305 15:58:09.662945  9448 layer_factory.hpp:77] Creating layer conv2
I0305 15:58:09.662953  9448 net.cpp:86] Creating Layer conv2
I0305 15:58:09.662958  9448 net.cpp:408] conv2 <- pool1
I0305 15:58:09.662963  9448 net.cpp:382] conv2 -> conv2
I0305 15:58:09.663708  9448 net.cpp:124] Setting up conv2
I0305 15:58:09.663717  9448 net.cpp:131] Top shape: 50 40 106 86 (18232000)
I0305 15:58:09.663718  9448 net.cpp:139] Memory required for data: 322745600
I0305 15:58:09.663727  9448 layer_factory.hpp:77] Creating layer pool2
I0305 15:58:09.663731  9448 net.cpp:86] Creating Layer pool2
I0305 15:58:09.663734  9448 net.cpp:408] pool2 <- conv2
I0305 15:58:09.663740  9448 net.cpp:382] pool2 -> pool2
I0305 15:58:09.663767  9448 net.cpp:124] Setting up pool2
I0305 15:58:09.663772  9448 net.cpp:131] Top shape: 50 40 53 43 (4558000)
I0305 15:58:09.663774  9448 net.cpp:139] Memory required for data: 340977600
I0305 15:58:09.663776  9448 layer_factory.hpp:77] Creating layer relu2
I0305 15:58:09.663781  9448 net.cpp:86] Creating Layer relu2
I0305 15:58:09.663784  9448 net.cpp:408] relu2 <- pool2
I0305 15:58:09.663787  9448 net.cpp:369] relu2 -> pool2 (in-place)
I0305 15:58:09.663892  9448 net.cpp:124] Setting up relu2
I0305 15:58:09.663897  9448 net.cpp:131] Top shape: 50 40 53 43 (4558000)
I0305 15:58:09.663900  9448 net.cpp:139] Memory required for data: 359209600
I0305 15:58:09.663903  9448 layer_factory.hpp:77] Creating layer conv3
I0305 15:58:09.663909  9448 net.cpp:86] Creating Layer conv3
I0305 15:58:09.663913  9448 net.cpp:408] conv3 <- pool2
I0305 15:58:09.663916  9448 net.cpp:382] conv3 -> conv3
I0305 15:58:09.664927  9448 net.cpp:124] Setting up conv3
I0305 15:58:09.664937  9448 net.cpp:131] Top shape: 50 60 49 39 (5733000)
I0305 15:58:09.664938  9448 net.cpp:139] Memory required for data: 382141600
I0305 15:58:09.664947  9448 layer_factory.hpp:77] Creating layer pool3
I0305 15:58:09.664952  9448 net.cpp:86] Creating Layer pool3
I0305 15:58:09.664954  9448 net.cpp:408] pool3 <- conv3
I0305 15:58:09.664959  9448 net.cpp:382] pool3 -> pool3
I0305 15:58:09.664988  9448 net.cpp:124] Setting up pool3
I0305 15:58:09.664991  9448 net.cpp:131] Top shape: 50 60 25 20 (1500000)
I0305 15:58:09.664994  9448 net.cpp:139] Memory required for data: 388141600
I0305 15:58:09.664996  9448 layer_factory.hpp:77] Creating layer relu3
I0305 15:58:09.665001  9448 net.cpp:86] Creating Layer relu3
I0305 15:58:09.665004  9448 net.cpp:408] relu3 <- pool3
I0305 15:58:09.665007  9448 net.cpp:369] relu3 -> pool3 (in-place)
I0305 15:58:09.665114  9448 net.cpp:124] Setting up relu3
I0305 15:58:09.665120  9448 net.cpp:131] Top shape: 50 60 25 20 (1500000)
I0305 15:58:09.665122  9448 net.cpp:139] Memory required for data: 394141600
I0305 15:58:09.665125  9448 layer_factory.hpp:77] Creating layer conv4
I0305 15:58:09.665132  9448 net.cpp:86] Creating Layer conv4
I0305 15:58:09.665134  9448 net.cpp:408] conv4 <- pool3
I0305 15:58:09.665139  9448 net.cpp:382] conv4 -> conv4
I0305 15:58:09.665873  9448 net.cpp:124] Setting up conv4
I0305 15:58:09.665880  9448 net.cpp:131] Top shape: 50 80 24 19 (1824000)
I0305 15:58:09.665884  9448 net.cpp:139] Memory required for data: 401437600
I0305 15:58:09.665889  9448 layer_factory.hpp:77] Creating layer ip1
I0305 15:58:09.665896  9448 net.cpp:86] Creating Layer ip1
I0305 15:58:09.665899  9448 net.cpp:408] ip1 <- conv4
I0305 15:58:09.665904  9448 net.cpp:382] ip1 -> ip1
I0305 15:58:09.696949  9448 net.cpp:124] Setting up ip1
I0305 15:58:09.696969  9448 net.cpp:131] Top shape: 50 120 (6000)
I0305 15:58:09.696970  9448 net.cpp:139] Memory required for data: 401461600
I0305 15:58:09.696980  9448 layer_factory.hpp:77] Creating layer ip1_ip1_0_split
I0305 15:58:09.696987  9448 net.cpp:86] Creating Layer ip1_ip1_0_split
I0305 15:58:09.696990  9448 net.cpp:408] ip1_ip1_0_split <- ip1
I0305 15:58:09.696995  9448 net.cpp:382] ip1_ip1_0_split -> ip1_ip1_0_split_0
I0305 15:58:09.697001  9448 net.cpp:382] ip1_ip1_0_split -> ip1_ip1_0_split_1
I0305 15:58:09.697006  9448 net.cpp:382] ip1_ip1_0_split -> ip1_ip1_0_split_2
I0305 15:58:09.697011  9448 net.cpp:382] ip1_ip1_0_split -> ip1_ip1_0_split_3
I0305 15:58:09.697057  9448 net.cpp:124] Setting up ip1_ip1_0_split
I0305 15:58:09.697060  9448 net.cpp:131] Top shape: 50 120 (6000)
I0305 15:58:09.697062  9448 net.cpp:131] Top shape: 50 120 (6000)
I0305 15:58:09.697078  9448 net.cpp:131] Top shape: 50 120 (6000)
I0305 15:58:09.697082  9448 net.cpp:131] Top shape: 50 120 (6000)
I0305 15:58:09.697084  9448 net.cpp:139] Memory required for data: 401557600
I0305 15:58:09.697088  9448 layer_factory.hpp:77] Creating layer ip2_label_1
I0305 15:58:09.697095  9448 net.cpp:86] Creating Layer ip2_label_1
I0305 15:58:09.697098  9448 net.cpp:408] ip2_label_1 <- ip1_ip1_0_split_0
I0305 15:58:09.697103  9448 net.cpp:382] ip2_label_1 -> ip2_label_1
I0305 15:58:09.697171  9448 net.cpp:124] Setting up ip2_label_1
I0305 15:58:09.697176  9448 net.cpp:131] Top shape: 50 2 (100)
I0305 15:58:09.697177  9448 net.cpp:139] Memory required for data: 401558000
I0305 15:58:09.697181  9448 layer_factory.hpp:77] Creating layer ip2_label_1_ip2_label_1_0_split
I0305 15:58:09.697186  9448 net.cpp:86] Creating Layer ip2_label_1_ip2_label_1_0_split
I0305 15:58:09.697190  9448 net.cpp:408] ip2_label_1_ip2_label_1_0_split <- ip2_label_1
I0305 15:58:09.697193  9448 net.cpp:382] ip2_label_1_ip2_label_1_0_split -> ip2_label_1_ip2_label_1_0_split_0
I0305 15:58:09.697199  9448 net.cpp:382] ip2_label_1_ip2_label_1_0_split -> ip2_label_1_ip2_label_1_0_split_1
I0305 15:58:09.697223  9448 net.cpp:124] Setting up ip2_label_1_ip2_label_1_0_split
I0305 15:58:09.697228  9448 net.cpp:131] Top shape: 50 2 (100)
I0305 15:58:09.697232  9448 net.cpp:131] Top shape: 50 2 (100)
I0305 15:58:09.697234  9448 net.cpp:139] Memory required for data: 401558800
I0305 15:58:09.697237  9448 layer_factory.hpp:77] Creating layer accuracy_1
I0305 15:58:09.697242  9448 net.cpp:86] Creating Layer accuracy_1
I0305 15:58:09.697245  9448 net.cpp:408] accuracy_1 <- ip2_label_1_ip2_label_1_0_split_0
I0305 15:58:09.697248  9448 net.cpp:408] accuracy_1 <- label_1_slice_label_0_split_0
…
